{"modelTopology": {"keras_version": "2.2.4", "backend": "tensorflow", "model_config": {"class_name": "Model", "config": {"name": "model_1", "layers": [{"name": "input0", "class_name": "InputLayer", "config": {"batch_input_shape": [null, 3, null, null], "dtype": "float32", "sparse": false, "name": "input0"}, "inbound_nodes": []}, {"name": "CoihONsZ_pad", "class_name": "ZeroPadding2D", "config": {"name": "CoihONsZ_pad", "trainable": true, "padding": [[1, 1], [1, 1]], "data_format": "channels_first"}, "inbound_nodes": [[["input0", 0, 0, {}]]]}, {"name": "CoihONsZ", "class_name": "Conv2D", "config": {"name": "CoihONsZ", "trainable": true, "filters": 32, "kernel_size": [3, 3], "strides": [2, 2], "padding": "valid", "data_format": "channels_first", "dilation_rate": [1, 1], "activation": "linear", "use_bias": false, "kernel_initializer": {"class_name": "Zeros", "config": {}}, "bias_initializer": {"class_name": "Zeros", "config": {}}, "kernel_regularizer": null, "bias_regularizer": null, "activity_regularizer": null, "kernel_constraint": null, "bias_constraint": null}, "inbound_nodes": [[["CoihONsZ_pad", 0, 0, {}]]]}, {"name": "BNsTVmnq", "class_name": "BatchNormalization", "config": {"name": "BNsTVmnq", "trainable": true, "axis": 1, "momentum": 1.0, "epsilon": 1e-05, "center": true, "scale": true, "beta_initializer": {"class_name": "Zeros", "config": {}}, "gamma_initializer": {"class_name": "Ones", "config": {}}, "moving_mean_initializer": {"class_name": "Zeros", "config": {}}, "moving_variance_initializer": {"class_name": "Ones", "config": {}}, "beta_regularizer": null, "gamma_regularizer": null, "beta_constraint": null, "gamma_constraint": null}, "inbound_nodes": [[["CoihONsZ", 0, 0, {}]]]}, {"name": "re_lu_1", "class_name": "ReLU", "config": {"name": "re_lu_1", "trainable": true, "max_value": 6.0, "negative_slope": 0.0, "threshold": 0.0}, "inbound_nodes": [[["BNsTVmnq", 0, 0, {}]]]}, {"name": "CRKUnsfy", "class_name": "Conv2D", "config": {"name": "CRKUnsfy", "trainable": true, "filters": 32, "kernel_size": [1, 1], "strides": [1, 1], "padding": "valid", "data_format": "channels_first", "dilation_rate": [1, 1], "activation": "linear", "use_bias": false, "kernel_initializer": {"class_name": "Zeros", "config": {}}, "bias_initializer": {"class_name": "Zeros", "config": {}}, "kernel_regularizer": null, "bias_regularizer": null, "activity_regularizer": null, "kernel_constraint": null, "bias_constraint": null}, "inbound_nodes": [[["re_lu_1", 0, 0, {}]]]}, {"name": "BNzcAhKx", "class_name": "BatchNormalization", "config": {"name": "BNzcAhKx", "trainable": true, "axis": 1, "momentum": 1.0, "epsilon": 1e-05, "center": true, "scale": true, "beta_initializer": {"class_name": "Zeros", "config": {}}, "gamma_initializer": {"class_name": "Ones", "config": {}}, "moving_mean_initializer": {"class_name": "Zeros", "config": {}}, "moving_variance_initializer": {"class_name": "Ones", "config": {}}, "beta_regularizer": null, "gamma_regularizer": null, "beta_constraint": null, "gamma_constraint": null}, "inbound_nodes": [[["CRKUnsfy", 0, 0, {}]]]}, {"name": "re_lu_2", "class_name": "ReLU", "config": {"name": "re_lu_2", "trainable": true, "max_value": 6.0, "negative_slope": 0.0, "threshold": 0.0}, "inbound_nodes": [[["BNzcAhKx", 0, 0, {}]]]}, {"name": "CZpYbjZu_pad", "class_name": "ZeroPadding2D", "config": {"name": "CZpYbjZu_pad", "trainable": true, "padding": [[1, 1], [1, 1]], "data_format": "channels_first"}, "inbound_nodes": [[["re_lu_2", 0, 0, {}]]]}, {"name": "depthwise_conv2d_1", "class_name": "DepthwiseConv2D", "config": {"name": "depthwise_conv2d_1", "trainable": true, "kernel_size": [3, 3], "strides": [1, 1], "padding": "valid", "data_format": "channels_first", "dilation_rate": [1, 1], "activation": "linear", "use_bias": false, "bias_initializer": {"class_name": "Zeros", "config": {}}, "bias_regularizer": null, "activity_regularizer": null, "bias_constraint": null, "depth_multiplier": 1, "depthwise_initializer": {"class_name": "VarianceScaling", "config": {"scale": 1.0, "mode": "fan_avg", "distribution": "uniform", "seed": null}}, "depthwise_regularizer": null, "depthwise_constraint": null}, "inbound_nodes": [[["CZpYbjZu_pad", 0, 0, {}]]]}, {"name": "BNCGYmuc", "class_name": "BatchNormalization", "config": {"name": "BNCGYmuc", "trainable": true, "axis": 1, "momentum": 1.0, "epsilon": 1e-05, "center": true, "scale": true, "beta_initializer": {"class_name": "Zeros", "config": {}}, "gamma_initializer": {"class_name": "Ones", "config": {}}, "moving_mean_initializer": {"class_name": "Zeros", "config": {}}, "moving_variance_initializer": {"class_name": "Ones", "config": {}}, "beta_regularizer": null, "gamma_regularizer": null, "beta_constraint": null, "gamma_constraint": null}, "inbound_nodes": [[["depthwise_conv2d_1", 0, 0, {}]]]}, {"name": "re_lu_3", "class_name": "ReLU", "config": {"name": "re_lu_3", "trainable": true, "max_value": 6.0, "negative_slope": 0.0, "threshold": 0.0}, "inbound_nodes": [[["BNCGYmuc", 0, 0, {}]]]}, {"name": "CQlIZkZT", "class_name": "Conv2D", "config": {"name": "CQlIZkZT", "trainable": true, "filters": 16, "kernel_size": [1, 1], "strides": [1, 1], "padding": "valid", "data_format": "channels_first", "dilation_rate": [1, 1], "activation": "linear", "use_bias": false, "kernel_initializer": {"class_name": "Zeros", "config": {}}, "bias_initializer": {"class_name": "Zeros", "config": {}}, "kernel_regularizer": null, "bias_regularizer": null, "activity_regularizer": null, "kernel_constraint": null, "bias_constraint": null}, "inbound_nodes": [[["re_lu_3", 0, 0, {}]]]}, {"name": "BNSettDH", "class_name": "BatchNormalization", "config": {"name": "BNSettDH", "trainable": true, "axis": 1, "momentum": 1.0, "epsilon": 1e-05, "center": true, "scale": true, "beta_initializer": {"class_name": "Zeros", "config": {}}, "gamma_initializer": {"class_name": "Ones", "config": {}}, "moving_mean_initializer": {"class_name": "Zeros", "config": {}}, "moving_variance_initializer": {"class_name": "Ones", "config": {}}, "beta_regularizer": null, "gamma_regularizer": null, "beta_constraint": null, "gamma_constraint": null}, "inbound_nodes": [[["CQlIZkZT", 0, 0, {}]]]}, {"name": "CYobMkZv", "class_name": "Conv2D", "config": {"name": "CYobMkZv", "trainable": true, "filters": 96, "kernel_size": [1, 1], "strides": [1, 1], "padding": "valid", "data_format": "channels_first", "dilation_rate": [1, 1], "activation": "linear", "use_bias": false, "kernel_initializer": {"class_name": "Zeros", "config": {}}, "bias_initializer": {"class_name": "Zeros", "config": {}}, "kernel_regularizer": null, "bias_regularizer": null, "activity_regularizer": null, "kernel_constraint": null, "bias_constraint": null}, "inbound_nodes": [[["BNSettDH", 0, 0, {}]]]}, {"name": "BNBJDGJv", "class_name": "BatchNormalization", "config": {"name": "BNBJDGJv", "trainable": true, "axis": 1, "momentum": 1.0, "epsilon": 1e-05, "center": true, "scale": true, "beta_initializer": {"class_name": "Zeros", "config": {}}, "gamma_initializer": {"class_name": "Ones", "config": {}}, "moving_mean_initializer": {"class_name": "Zeros", "config": {}}, "moving_variance_initializer": {"class_name": "Ones", "config": {}}, "beta_regularizer": null, "gamma_regularizer": null, "beta_constraint": null, "gamma_constraint": null}, "inbound_nodes": [[["CYobMkZv", 0, 0, {}]]]}, {"name": "re_lu_4", "class_name": "ReLU", "config": {"name": "re_lu_4", "trainable": true, "max_value": 6.0, "negative_slope": 0.0, "threshold": 0.0}, "inbound_nodes": [[["BNBJDGJv", 0, 0, {}]]]}, {"name": "CniDoUzn_pad", "class_name": "ZeroPadding2D", "config": {"name": "CniDoUzn_pad", "trainable": true, "padding": [[1, 1], [1, 1]], "data_format": "channels_first"}, "inbound_nodes": [[["re_lu_4", 0, 0, {}]]]}, {"name": "depthwise_conv2d_2", "class_name": "DepthwiseConv2D", "config": {"name": "depthwise_conv2d_2", "trainable": true, "kernel_size": [3, 3], "strides": [2, 2], "padding": "valid", "data_format": "channels_first", "dilation_rate": [1, 1], "activation": "linear", "use_bias": false, "bias_initializer": {"class_name": "Zeros", "config": {}}, "bias_regularizer": null, "activity_regularizer": null, "bias_constraint": null, "depth_multiplier": 1, "depthwise_initializer": {"class_name": "VarianceScaling", "config": {"scale": 1.0, "mode": "fan_avg", "distribution": "uniform", "seed": null}}, "depthwise_regularizer": null, "depthwise_constraint": null}, "inbound_nodes": [[["CniDoUzn_pad", 0, 0, {}]]]}, {"name": "BNfsfxEt", "class_name": "BatchNormalization", "config": {"name": "BNfsfxEt", "trainable": true, "axis": 1, "momentum": 1.0, "epsilon": 1e-05, "center": true, "scale": true, "beta_initializer": {"class_name": "Zeros", "config": {}}, "gamma_initializer": {"class_name": "Ones", "config": {}}, "moving_mean_initializer": {"class_name": "Zeros", "config": {}}, "moving_variance_initializer": {"class_name": "Ones", "config": {}}, "beta_regularizer": null, "gamma_regularizer": null, "beta_constraint": null, "gamma_constraint": null}, "inbound_nodes": [[["depthwise_conv2d_2", 0, 0, {}]]]}, {"name": "re_lu_5", "class_name": "ReLU", "config": {"name": "re_lu_5", "trainable": true, "max_value": 6.0, "negative_slope": 0.0, "threshold": 0.0}, "inbound_nodes": [[["BNfsfxEt", 0, 0, {}]]]}, {"name": "CNzcgfla", "class_name": "Conv2D", "config": {"name": "CNzcgfla", "trainable": true, "filters": 24, "kernel_size": [1, 1], "strides": [1, 1], "padding": "valid", "data_format": "channels_first", "dilation_rate": [1, 1], "activation": "linear", "use_bias": false, "kernel_initializer": {"class_name": "Zeros", "config": {}}, "bias_initializer": {"class_name": "Zeros", "config": {}}, "kernel_regularizer": null, "bias_regularizer": null, "activity_regularizer": null, "kernel_constraint": null, "bias_constraint": null}, "inbound_nodes": [[["re_lu_5", 0, 0, {}]]]}, {"name": "BNKIIHKQ", "class_name": "BatchNormalization", "config": {"name": "BNKIIHKQ", "trainable": true, "axis": 1, "momentum": 1.0, "epsilon": 1e-05, "center": true, "scale": true, "beta_initializer": {"class_name": "Zeros", "config": {}}, "gamma_initializer": {"class_name": "Ones", "config": {}}, "moving_mean_initializer": {"class_name": "Zeros", "config": {}}, "moving_variance_initializer": {"class_name": "Ones", "config": {}}, "beta_regularizer": null, "gamma_regularizer": null, "beta_constraint": null, "gamma_constraint": null}, "inbound_nodes": [[["CNzcgfla", 0, 0, {}]]]}, {"name": "CiGjpejq", "class_name": "Conv2D", "config": {"name": "CiGjpejq", "trainable": true, "filters": 144, "kernel_size": [1, 1], "strides": [1, 1], "padding": "valid", "data_format": "channels_first", "dilation_rate": [1, 1], "activation": "linear", "use_bias": false, "kernel_initializer": {"class_name": "Zeros", "config": {}}, "bias_initializer": {"class_name": "Zeros", "config": {}}, "kernel_regularizer": null, "bias_regularizer": null, "activity_regularizer": null, "kernel_constraint": null, "bias_constraint": null}, "inbound_nodes": [[["BNKIIHKQ", 0, 0, {}]]]}, {"name": "BNRsBACx", "class_name": "BatchNormalization", "config": {"name": "BNRsBACx", "trainable": true, "axis": 1, "momentum": 1.0, "epsilon": 1e-05, "center": true, "scale": true, "beta_initializer": {"class_name": "Zeros", "config": {}}, "gamma_initializer": {"class_name": "Ones", "config": {}}, "moving_mean_initializer": {"class_name": "Zeros", "config": {}}, "moving_variance_initializer": {"class_name": "Ones", "config": {}}, "beta_regularizer": null, "gamma_regularizer": null, "beta_constraint": null, "gamma_constraint": null}, "inbound_nodes": [[["CiGjpejq", 0, 0, {}]]]}, {"name": "re_lu_6", "class_name": "ReLU", "config": {"name": "re_lu_6", "trainable": true, "max_value": 6.0, "negative_slope": 0.0, "threshold": 0.0}, "inbound_nodes": [[["BNRsBACx", 0, 0, {}]]]}, {"name": "CxFyaptJ_pad", "class_name": "ZeroPadding2D", "config": {"name": "CxFyaptJ_pad", "trainable": true, "padding": [[1, 1], [1, 1]], "data_format": "channels_first"}, "inbound_nodes": [[["re_lu_6", 0, 0, {}]]]}, {"name": "depthwise_conv2d_3", "class_name": "DepthwiseConv2D", "config": {"name": "depthwise_conv2d_3", "trainable": true, "kernel_size": [3, 3], "strides": [1, 1], "padding": "valid", "data_format": "channels_first", "dilation_rate": [1, 1], "activation": "linear", "use_bias": false, "bias_initializer": {"class_name": "Zeros", "config": {}}, "bias_regularizer": null, "activity_regularizer": null, "bias_constraint": null, "depth_multiplier": 1, "depthwise_initializer": {"class_name": "VarianceScaling", "config": {"scale": 1.0, "mode": "fan_avg", "distribution": "uniform", "seed": null}}, "depthwise_regularizer": null, "depthwise_constraint": null}, "inbound_nodes": [[["CxFyaptJ_pad", 0, 0, {}]]]}, {"name": "BNhjtbif", "class_name": "BatchNormalization", "config": {"name": "BNhjtbif", "trainable": true, "axis": 1, "momentum": 1.0, "epsilon": 1e-05, "center": true, "scale": true, "beta_initializer": {"class_name": "Zeros", "config": {}}, "gamma_initializer": {"class_name": "Ones", "config": {}}, "moving_mean_initializer": {"class_name": "Zeros", "config": {}}, "moving_variance_initializer": {"class_name": "Ones", "config": {}}, "beta_regularizer": null, "gamma_regularizer": null, "beta_constraint": null, "gamma_constraint": null}, "inbound_nodes": [[["depthwise_conv2d_3", 0, 0, {}]]]}, {"name": "re_lu_7", "class_name": "ReLU", "config": {"name": "re_lu_7", "trainable": true, "max_value": 6.0, "negative_slope": 0.0, "threshold": 0.0}, "inbound_nodes": [[["BNhjtbif", 0, 0, {}]]]}, {"name": "CykBXQVA", "class_name": "Conv2D", "config": {"name": "CykBXQVA", "trainable": true, "filters": 24, "kernel_size": [1, 1], "strides": [1, 1], "padding": "valid", "data_format": "channels_first", "dilation_rate": [1, 1], "activation": "linear", "use_bias": false, "kernel_initializer": {"class_name": "Zeros", "config": {}}, "bias_initializer": {"class_name": "Zeros", "config": {}}, "kernel_regularizer": null, "bias_regularizer": null, "activity_regularizer": null, "kernel_constraint": null, "bias_constraint": null}, "inbound_nodes": [[["re_lu_7", 0, 0, {}]]]}, {"name": "BNpjbpaq", "class_name": "BatchNormalization", "config": {"name": "BNpjbpaq", "trainable": true, "axis": 1, "momentum": 1.0, "epsilon": 1e-05, "center": true, "scale": true, "beta_initializer": {"class_name": "Zeros", "config": {}}, "gamma_initializer": {"class_name": "Ones", "config": {}}, "moving_mean_initializer": {"class_name": "Zeros", "config": {}}, "moving_variance_initializer": {"class_name": "Ones", "config": {}}, "beta_regularizer": null, "gamma_regularizer": null, "beta_constraint": null, "gamma_constraint": null}, "inbound_nodes": [[["CykBXQVA", 0, 0, {}]]]}, {"name": "ANfgzXsL", "class_name": "Add", "config": {"name": "ANfgzXsL", "trainable": true}, "inbound_nodes": [[["BNpjbpaq", 0, 0, {}], ["BNKIIHKQ", 0, 0, {}]]]}, {"name": "CLDHBvHr", "class_name": "Conv2D", "config": {"name": "CLDHBvHr", "trainable": true, "filters": 144, "kernel_size": [1, 1], "strides": [1, 1], "padding": "valid", "data_format": "channels_first", "dilation_rate": [1, 1], "activation": "linear", "use_bias": false, "kernel_initializer": {"class_name": "Zeros", "config": {}}, "bias_initializer": {"class_name": "Zeros", "config": {}}, "kernel_regularizer": null, "bias_regularizer": null, "activity_regularizer": null, "kernel_constraint": null, "bias_constraint": null}, "inbound_nodes": [[["ANfgzXsL", 0, 0, {}]]]}, {"name": "BNhsVbfD", "class_name": "BatchNormalization", "config": {"name": "BNhsVbfD", "trainable": true, "axis": 1, "momentum": 1.0, "epsilon": 1e-05, "center": true, "scale": true, "beta_initializer": {"class_name": "Zeros", "config": {}}, "gamma_initializer": {"class_name": "Ones", "config": {}}, "moving_mean_initializer": {"class_name": "Zeros", "config": {}}, "moving_variance_initializer": {"class_name": "Ones", "config": {}}, "beta_regularizer": null, "gamma_regularizer": null, "beta_constraint": null, "gamma_constraint": null}, "inbound_nodes": [[["CLDHBvHr", 0, 0, {}]]]}, {"name": "re_lu_8", "class_name": "ReLU", "config": {"name": "re_lu_8", "trainable": true, "max_value": 6.0, "negative_slope": 0.0, "threshold": 0.0}, "inbound_nodes": [[["BNhsVbfD", 0, 0, {}]]]}, {"name": "CoiIYzNJ_pad", "class_name": "ZeroPadding2D", "config": {"name": "CoiIYzNJ_pad", "trainable": true, "padding": [[1, 1], [1, 1]], "data_format": "channels_first"}, "inbound_nodes": [[["re_lu_8", 0, 0, {}]]]}, {"name": "depthwise_conv2d_4", "class_name": "DepthwiseConv2D", "config": {"name": "depthwise_conv2d_4", "trainable": true, "kernel_size": [3, 3], "strides": [2, 2], "padding": "valid", "data_format": "channels_first", "dilation_rate": [1, 1], "activation": "linear", "use_bias": false, "bias_initializer": {"class_name": "Zeros", "config": {}}, "bias_regularizer": null, "activity_regularizer": null, "bias_constraint": null, "depth_multiplier": 1, "depthwise_initializer": {"class_name": "VarianceScaling", "config": {"scale": 1.0, "mode": "fan_avg", "distribution": "uniform", "seed": null}}, "depthwise_regularizer": null, "depthwise_constraint": null}, "inbound_nodes": [[["CoiIYzNJ_pad", 0, 0, {}]]]}, {"name": "BNczXQal", "class_name": "BatchNormalization", "config": {"name": "BNczXQal", "trainable": true, "axis": 1, "momentum": 1.0, "epsilon": 1e-05, "center": true, "scale": true, "beta_initializer": {"class_name": "Zeros", "config": {}}, "gamma_initializer": {"class_name": "Ones", "config": {}}, "moving_mean_initializer": {"class_name": "Zeros", "config": {}}, "moving_variance_initializer": {"class_name": "Ones", "config": {}}, "beta_regularizer": null, "gamma_regularizer": null, "beta_constraint": null, "gamma_constraint": null}, "inbound_nodes": [[["depthwise_conv2d_4", 0, 0, {}]]]}, {"name": "re_lu_9", "class_name": "ReLU", "config": {"name": "re_lu_9", "trainable": true, "max_value": 6.0, "negative_slope": 0.0, "threshold": 0.0}, "inbound_nodes": [[["BNczXQal", 0, 0, {}]]]}, {"name": "CjvzhshN", "class_name": "Conv2D", "config": {"name": "CjvzhshN", "trainable": true, "filters": 32, "kernel_size": [1, 1], "strides": [1, 1], "padding": "valid", "data_format": "channels_first", "dilation_rate": [1, 1], "activation": "linear", "use_bias": false, "kernel_initializer": {"class_name": "Zeros", "config": {}}, "bias_initializer": {"class_name": "Zeros", "config": {}}, "kernel_regularizer": null, "bias_regularizer": null, "activity_regularizer": null, "kernel_constraint": null, "bias_constraint": null}, "inbound_nodes": [[["re_lu_9", 0, 0, {}]]]}, {"name": "BNtbuygE", "class_name": "BatchNormalization", "config": {"name": "BNtbuygE", "trainable": true, "axis": 1, "momentum": 1.0, "epsilon": 1e-05, "center": true, "scale": true, "beta_initializer": {"class_name": "Zeros", "config": {}}, "gamma_initializer": {"class_name": "Ones", "config": {}}, "moving_mean_initializer": {"class_name": "Zeros", "config": {}}, "moving_variance_initializer": {"class_name": "Ones", "config": {}}, "beta_regularizer": null, "gamma_regularizer": null, "beta_constraint": null, "gamma_constraint": null}, "inbound_nodes": [[["CjvzhshN", 0, 0, {}]]]}, {"name": "CgnxRgmD", "class_name": "Conv2D", "config": {"name": "CgnxRgmD", "trainable": true, "filters": 192, "kernel_size": [1, 1], "strides": [1, 1], "padding": "valid", "data_format": "channels_first", "dilation_rate": [1, 1], "activation": "linear", "use_bias": false, "kernel_initializer": {"class_name": "Zeros", "config": {}}, "bias_initializer": {"class_name": "Zeros", "config": {}}, "kernel_regularizer": null, "bias_regularizer": null, "activity_regularizer": null, "kernel_constraint": null, "bias_constraint": null}, "inbound_nodes": [[["BNtbuygE", 0, 0, {}]]]}, {"name": "BNTeTexM", "class_name": "BatchNormalization", "config": {"name": "BNTeTexM", "trainable": true, "axis": 1, "momentum": 1.0, "epsilon": 1e-05, "center": true, "scale": true, "beta_initializer": {"class_name": "Zeros", "config": {}}, "gamma_initializer": {"class_name": "Ones", "config": {}}, "moving_mean_initializer": {"class_name": "Zeros", "config": {}}, "moving_variance_initializer": {"class_name": "Ones", "config": {}}, "beta_regularizer": null, "gamma_regularizer": null, "beta_constraint": null, "gamma_constraint": null}, "inbound_nodes": [[["CgnxRgmD", 0, 0, {}]]]}, {"name": "re_lu_10", "class_name": "ReLU", "config": {"name": "re_lu_10", "trainable": true, "max_value": 6.0, "negative_slope": 0.0, "threshold": 0.0}, "inbound_nodes": [[["BNTeTexM", 0, 0, {}]]]}, {"name": "CeprrrJD_pad", "class_name": "ZeroPadding2D", "config": {"name": "CeprrrJD_pad", "trainable": true, "padding": [[1, 1], [1, 1]], "data_format": "channels_first"}, "inbound_nodes": [[["re_lu_10", 0, 0, {}]]]}, {"name": "depthwise_conv2d_5", "class_name": "DepthwiseConv2D", "config": {"name": "depthwise_conv2d_5", "trainable": true, "kernel_size": [3, 3], "strides": [1, 1], "padding": "valid", "data_format": "channels_first", "dilation_rate": [1, 1], "activation": "linear", "use_bias": false, "bias_initializer": {"class_name": "Zeros", "config": {}}, "bias_regularizer": null, "activity_regularizer": null, "bias_constraint": null, "depth_multiplier": 1, "depthwise_initializer": {"class_name": "VarianceScaling", "config": {"scale": 1.0, "mode": "fan_avg", "distribution": "uniform", "seed": null}}, "depthwise_regularizer": null, "depthwise_constraint": null}, "inbound_nodes": [[["CeprrrJD_pad", 0, 0, {}]]]}, {"name": "BNVbzFRS", "class_name": "BatchNormalization", "config": {"name": "BNVbzFRS", "trainable": true, "axis": 1, "momentum": 1.0, "epsilon": 1e-05, "center": true, "scale": true, "beta_initializer": {"class_name": "Zeros", "config": {}}, "gamma_initializer": {"class_name": "Ones", "config": {}}, "moving_mean_initializer": {"class_name": "Zeros", "config": {}}, "moving_variance_initializer": {"class_name": "Ones", "config": {}}, "beta_regularizer": null, "gamma_regularizer": null, "beta_constraint": null, "gamma_constraint": null}, "inbound_nodes": [[["depthwise_conv2d_5", 0, 0, {}]]]}, {"name": "re_lu_11", "class_name": "ReLU", "config": {"name": "re_lu_11", "trainable": true, "max_value": 6.0, "negative_slope": 0.0, "threshold": 0.0}, "inbound_nodes": [[["BNVbzFRS", 0, 0, {}]]]}, {"name": "CmiecRau", "class_name": "Conv2D", "config": {"name": "CmiecRau", "trainable": true, "filters": 32, "kernel_size": [1, 1], "strides": [1, 1], "padding": "valid", "data_format": "channels_first", "dilation_rate": [1, 1], "activation": "linear", "use_bias": false, "kernel_initializer": {"class_name": "Zeros", "config": {}}, "bias_initializer": {"class_name": "Zeros", "config": {}}, "kernel_regularizer": null, "bias_regularizer": null, "activity_regularizer": null, "kernel_constraint": null, "bias_constraint": null}, "inbound_nodes": [[["re_lu_11", 0, 0, {}]]]}, {"name": "BNUWasaY", "class_name": "BatchNormalization", "config": {"name": "BNUWasaY", "trainable": true, "axis": 1, "momentum": 1.0, "epsilon": 1e-05, "center": true, "scale": true, "beta_initializer": {"class_name": "Zeros", "config": {}}, "gamma_initializer": {"class_name": "Ones", "config": {}}, "moving_mean_initializer": {"class_name": "Zeros", "config": {}}, "moving_variance_initializer": {"class_name": "Ones", "config": {}}, "beta_regularizer": null, "gamma_regularizer": null, "beta_constraint": null, "gamma_constraint": null}, "inbound_nodes": [[["CmiecRau", 0, 0, {}]]]}, {"name": "AcCtqbWf", "class_name": "Add", "config": {"name": "AcCtqbWf", "trainable": true}, "inbound_nodes": [[["BNUWasaY", 0, 0, {}], ["BNtbuygE", 0, 0, {}]]]}, {"name": "CfpMFEJL", "class_name": "Conv2D", "config": {"name": "CfpMFEJL", "trainable": true, "filters": 192, "kernel_size": [1, 1], "strides": [1, 1], "padding": "valid", "data_format": "channels_first", "dilation_rate": [1, 1], "activation": "linear", "use_bias": false, "kernel_initializer": {"class_name": "Zeros", "config": {}}, "bias_initializer": {"class_name": "Zeros", "config": {}}, "kernel_regularizer": null, "bias_regularizer": null, "activity_regularizer": null, "kernel_constraint": null, "bias_constraint": null}, "inbound_nodes": [[["AcCtqbWf", 0, 0, {}]]]}, {"name": "BNNBgNCa", "class_name": "BatchNormalization", "config": {"name": "BNNBgNCa", "trainable": true, "axis": 1, "momentum": 1.0, "epsilon": 1e-05, "center": true, "scale": true, "beta_initializer": {"class_name": "Zeros", "config": {}}, "gamma_initializer": {"class_name": "Ones", "config": {}}, "moving_mean_initializer": {"class_name": "Zeros", "config": {}}, "moving_variance_initializer": {"class_name": "Ones", "config": {}}, "beta_regularizer": null, "gamma_regularizer": null, "beta_constraint": null, "gamma_constraint": null}, "inbound_nodes": [[["CfpMFEJL", 0, 0, {}]]]}, {"name": "re_lu_12", "class_name": "ReLU", "config": {"name": "re_lu_12", "trainable": true, "max_value": 6.0, "negative_slope": 0.0, "threshold": 0.0}, "inbound_nodes": [[["BNNBgNCa", 0, 0, {}]]]}, {"name": "CpZQmnPH_pad", "class_name": "ZeroPadding2D", "config": {"name": "CpZQmnPH_pad", "trainable": true, "padding": [[1, 1], [1, 1]], "data_format": "channels_first"}, "inbound_nodes": [[["re_lu_12", 0, 0, {}]]]}, {"name": "depthwise_conv2d_6", "class_name": "DepthwiseConv2D", "config": {"name": "depthwise_conv2d_6", "trainable": true, "kernel_size": [3, 3], "strides": [1, 1], "padding": "valid", "data_format": "channels_first", "dilation_rate": [1, 1], "activation": "linear", "use_bias": false, "bias_initializer": {"class_name": "Zeros", "config": {}}, "bias_regularizer": null, "activity_regularizer": null, "bias_constraint": null, "depth_multiplier": 1, "depthwise_initializer": {"class_name": "VarianceScaling", "config": {"scale": 1.0, "mode": "fan_avg", "distribution": "uniform", "seed": null}}, "depthwise_regularizer": null, "depthwise_constraint": null}, "inbound_nodes": [[["CpZQmnPH_pad", 0, 0, {}]]]}, {"name": "BNRTQgKE", "class_name": "BatchNormalization", "config": {"name": "BNRTQgKE", "trainable": true, "axis": 1, "momentum": 1.0, "epsilon": 1e-05, "center": true, "scale": true, "beta_initializer": {"class_name": "Zeros", "config": {}}, "gamma_initializer": {"class_name": "Ones", "config": {}}, "moving_mean_initializer": {"class_name": "Zeros", "config": {}}, "moving_variance_initializer": {"class_name": "Ones", "config": {}}, "beta_regularizer": null, "gamma_regularizer": null, "beta_constraint": null, "gamma_constraint": null}, "inbound_nodes": [[["depthwise_conv2d_6", 0, 0, {}]]]}, {"name": "re_lu_13", "class_name": "ReLU", "config": {"name": "re_lu_13", "trainable": true, "max_value": 6.0, "negative_slope": 0.0, "threshold": 0.0}, "inbound_nodes": [[["BNRTQgKE", 0, 0, {}]]]}, {"name": "CDHWBJIm", "class_name": "Conv2D", "config": {"name": "CDHWBJIm", "trainable": true, "filters": 32, "kernel_size": [1, 1], "strides": [1, 1], "padding": "valid", "data_format": "channels_first", "dilation_rate": [1, 1], "activation": "linear", "use_bias": false, "kernel_initializer": {"class_name": "Zeros", "config": {}}, "bias_initializer": {"class_name": "Zeros", "config": {}}, "kernel_regularizer": null, "bias_regularizer": null, "activity_regularizer": null, "kernel_constraint": null, "bias_constraint": null}, "inbound_nodes": [[["re_lu_13", 0, 0, {}]]]}, {"name": "BNsiDean", "class_name": "BatchNormalization", "config": {"name": "BNsiDean", "trainable": true, "axis": 1, "momentum": 1.0, "epsilon": 1e-05, "center": true, "scale": true, "beta_initializer": {"class_name": "Zeros", "config": {}}, "gamma_initializer": {"class_name": "Ones", "config": {}}, "moving_mean_initializer": {"class_name": "Zeros", "config": {}}, "moving_variance_initializer": {"class_name": "Ones", "config": {}}, "beta_regularizer": null, "gamma_regularizer": null, "beta_constraint": null, "gamma_constraint": null}, "inbound_nodes": [[["CDHWBJIm", 0, 0, {}]]]}, {"name": "AVdFfVLa", "class_name": "Add", "config": {"name": "AVdFfVLa", "trainable": true}, "inbound_nodes": [[["BNsiDean", 0, 0, {}], ["AcCtqbWf", 0, 0, {}]]]}, {"name": "CNFabhuH", "class_name": "Conv2D", "config": {"name": "CNFabhuH", "trainable": true, "filters": 192, "kernel_size": [1, 1], "strides": [1, 1], "padding": "valid", "data_format": "channels_first", "dilation_rate": [1, 1], "activation": "linear", "use_bias": false, "kernel_initializer": {"class_name": "Zeros", "config": {}}, "bias_initializer": {"class_name": "Zeros", "config": {}}, "kernel_regularizer": null, "bias_regularizer": null, "activity_regularizer": null, "kernel_constraint": null, "bias_constraint": null}, "inbound_nodes": [[["AVdFfVLa", 0, 0, {}]]]}, {"name": "BNzSLpKQ", "class_name": "BatchNormalization", "config": {"name": "BNzSLpKQ", "trainable": true, "axis": 1, "momentum": 1.0, "epsilon": 1e-05, "center": true, "scale": true, "beta_initializer": {"class_name": "Zeros", "config": {}}, "gamma_initializer": {"class_name": "Ones", "config": {}}, "moving_mean_initializer": {"class_name": "Zeros", "config": {}}, "moving_variance_initializer": {"class_name": "Ones", "config": {}}, "beta_regularizer": null, "gamma_regularizer": null, "beta_constraint": null, "gamma_constraint": null}, "inbound_nodes": [[["CNFabhuH", 0, 0, {}]]]}, {"name": "re_lu_14", "class_name": "ReLU", "config": {"name": "re_lu_14", "trainable": true, "max_value": 6.0, "negative_slope": 0.0, "threshold": 0.0}, "inbound_nodes": [[["BNzSLpKQ", 0, 0, {}]]]}, {"name": "CLvzcdBO_pad", "class_name": "ZeroPadding2D", "config": {"name": "CLvzcdBO_pad", "trainable": true, "padding": [[1, 1], [1, 1]], "data_format": "channels_first"}, "inbound_nodes": [[["re_lu_14", 0, 0, {}]]]}, {"name": "depthwise_conv2d_7", "class_name": "DepthwiseConv2D", "config": {"name": "depthwise_conv2d_7", "trainable": true, "kernel_size": [3, 3], "strides": [2, 2], "padding": "valid", "data_format": "channels_first", "dilation_rate": [1, 1], "activation": "linear", "use_bias": false, "bias_initializer": {"class_name": "Zeros", "config": {}}, "bias_regularizer": null, "activity_regularizer": null, "bias_constraint": null, "depth_multiplier": 1, "depthwise_initializer": {"class_name": "VarianceScaling", "config": {"scale": 1.0, "mode": "fan_avg", "distribution": "uniform", "seed": null}}, "depthwise_regularizer": null, "depthwise_constraint": null}, "inbound_nodes": [[["CLvzcdBO_pad", 0, 0, {}]]]}, {"name": "BNhntHCL", "class_name": "BatchNormalization", "config": {"name": "BNhntHCL", "trainable": true, "axis": 1, "momentum": 1.0, "epsilon": 1e-05, "center": true, "scale": true, "beta_initializer": {"class_name": "Zeros", "config": {}}, "gamma_initializer": {"class_name": "Ones", "config": {}}, "moving_mean_initializer": {"class_name": "Zeros", "config": {}}, "moving_variance_initializer": {"class_name": "Ones", "config": {}}, "beta_regularizer": null, "gamma_regularizer": null, "beta_constraint": null, "gamma_constraint": null}, "inbound_nodes": [[["depthwise_conv2d_7", 0, 0, {}]]]}, {"name": "re_lu_15", "class_name": "ReLU", "config": {"name": "re_lu_15", "trainable": true, "max_value": 6.0, "negative_slope": 0.0, "threshold": 0.0}, "inbound_nodes": [[["BNhntHCL", 0, 0, {}]]]}, {"name": "CxYQxccx", "class_name": "Conv2D", "config": {"name": "CxYQxccx", "trainable": true, "filters": 64, "kernel_size": [1, 1], "strides": [1, 1], "padding": "valid", "data_format": "channels_first", "dilation_rate": [1, 1], "activation": "linear", "use_bias": false, "kernel_initializer": {"class_name": "Zeros", "config": {}}, "bias_initializer": {"class_name": "Zeros", "config": {}}, "kernel_regularizer": null, "bias_regularizer": null, "activity_regularizer": null, "kernel_constraint": null, "bias_constraint": null}, "inbound_nodes": [[["re_lu_15", 0, 0, {}]]]}, {"name": "BNqrvdyw", "class_name": "BatchNormalization", "config": {"name": "BNqrvdyw", "trainable": true, "axis": 1, "momentum": 1.0, "epsilon": 1e-05, "center": true, "scale": true, "beta_initializer": {"class_name": "Zeros", "config": {}}, "gamma_initializer": {"class_name": "Ones", "config": {}}, "moving_mean_initializer": {"class_name": "Zeros", "config": {}}, "moving_variance_initializer": {"class_name": "Ones", "config": {}}, "beta_regularizer": null, "gamma_regularizer": null, "beta_constraint": null, "gamma_constraint": null}, "inbound_nodes": [[["CxYQxccx", 0, 0, {}]]]}, {"name": "CidGSblu", "class_name": "Conv2D", "config": {"name": "CidGSblu", "trainable": true, "filters": 384, "kernel_size": [1, 1], "strides": [1, 1], "padding": "valid", "data_format": "channels_first", "dilation_rate": [1, 1], "activation": "linear", "use_bias": false, "kernel_initializer": {"class_name": "Zeros", "config": {}}, "bias_initializer": {"class_name": "Zeros", "config": {}}, "kernel_regularizer": null, "bias_regularizer": null, "activity_regularizer": null, "kernel_constraint": null, "bias_constraint": null}, "inbound_nodes": [[["BNqrvdyw", 0, 0, {}]]]}, {"name": "BNtJbcBy", "class_name": "BatchNormalization", "config": {"name": "BNtJbcBy", "trainable": true, "axis": 1, "momentum": 1.0, "epsilon": 1e-05, "center": true, "scale": true, "beta_initializer": {"class_name": "Zeros", "config": {}}, "gamma_initializer": {"class_name": "Ones", "config": {}}, "moving_mean_initializer": {"class_name": "Zeros", "config": {}}, "moving_variance_initializer": {"class_name": "Ones", "config": {}}, "beta_regularizer": null, "gamma_regularizer": null, "beta_constraint": null, "gamma_constraint": null}, "inbound_nodes": [[["CidGSblu", 0, 0, {}]]]}, {"name": "re_lu_16", "class_name": "ReLU", "config": {"name": "re_lu_16", "trainable": true, "max_value": 6.0, "negative_slope": 0.0, "threshold": 0.0}, "inbound_nodes": [[["BNtJbcBy", 0, 0, {}]]]}, {"name": "CqXupkit_pad", "class_name": "ZeroPadding2D", "config": {"name": "CqXupkit_pad", "trainable": true, "padding": [[1, 1], [1, 1]], "data_format": "channels_first"}, "inbound_nodes": [[["re_lu_16", 0, 0, {}]]]}, {"name": "depthwise_conv2d_8", "class_name": "DepthwiseConv2D", "config": {"name": "depthwise_conv2d_8", "trainable": true, "kernel_size": [3, 3], "strides": [1, 1], "padding": "valid", "data_format": "channels_first", "dilation_rate": [1, 1], "activation": "linear", "use_bias": false, "bias_initializer": {"class_name": "Zeros", "config": {}}, "bias_regularizer": null, "activity_regularizer": null, "bias_constraint": null, "depth_multiplier": 1, "depthwise_initializer": {"class_name": "VarianceScaling", "config": {"scale": 1.0, "mode": "fan_avg", "distribution": "uniform", "seed": null}}, "depthwise_regularizer": null, "depthwise_constraint": null}, "inbound_nodes": [[["CqXupkit_pad", 0, 0, {}]]]}, {"name": "BNVTRNkS", "class_name": "BatchNormalization", "config": {"name": "BNVTRNkS", "trainable": true, "axis": 1, "momentum": 1.0, "epsilon": 1e-05, "center": true, "scale": true, "beta_initializer": {"class_name": "Zeros", "config": {}}, "gamma_initializer": {"class_name": "Ones", "config": {}}, "moving_mean_initializer": {"class_name": "Zeros", "config": {}}, "moving_variance_initializer": {"class_name": "Ones", "config": {}}, "beta_regularizer": null, "gamma_regularizer": null, "beta_constraint": null, "gamma_constraint": null}, "inbound_nodes": [[["depthwise_conv2d_8", 0, 0, {}]]]}, {"name": "re_lu_17", "class_name": "ReLU", "config": {"name": "re_lu_17", "trainable": true, "max_value": 6.0, "negative_slope": 0.0, "threshold": 0.0}, "inbound_nodes": [[["BNVTRNkS", 0, 0, {}]]]}, {"name": "CWrxoFxa", "class_name": "Conv2D", "config": {"name": "CWrxoFxa", "trainable": true, "filters": 64, "kernel_size": [1, 1], "strides": [1, 1], "padding": "valid", "data_format": "channels_first", "dilation_rate": [1, 1], "activation": "linear", "use_bias": false, "kernel_initializer": {"class_name": "Zeros", "config": {}}, "bias_initializer": {"class_name": "Zeros", "config": {}}, "kernel_regularizer": null, "bias_regularizer": null, "activity_regularizer": null, "kernel_constraint": null, "bias_constraint": null}, "inbound_nodes": [[["re_lu_17", 0, 0, {}]]]}, {"name": "BNSbkwMW", "class_name": "BatchNormalization", "config": {"name": "BNSbkwMW", "trainable": true, "axis": 1, "momentum": 1.0, "epsilon": 1e-05, "center": true, "scale": true, "beta_initializer": {"class_name": "Zeros", "config": {}}, "gamma_initializer": {"class_name": "Ones", "config": {}}, "moving_mean_initializer": {"class_name": "Zeros", "config": {}}, "moving_variance_initializer": {"class_name": "Ones", "config": {}}, "beta_regularizer": null, "gamma_regularizer": null, "beta_constraint": null, "gamma_constraint": null}, "inbound_nodes": [[["CWrxoFxa", 0, 0, {}]]]}, {"name": "AihCxGwW", "class_name": "Add", "config": {"name": "AihCxGwW", "trainable": true}, "inbound_nodes": [[["BNSbkwMW", 0, 0, {}], ["BNqrvdyw", 0, 0, {}]]]}, {"name": "CUNCRXdv", "class_name": "Conv2D", "config": {"name": "CUNCRXdv", "trainable": true, "filters": 384, "kernel_size": [1, 1], "strides": [1, 1], "padding": "valid", "data_format": "channels_first", "dilation_rate": [1, 1], "activation": "linear", "use_bias": false, "kernel_initializer": {"class_name": "Zeros", "config": {}}, "bias_initializer": {"class_name": "Zeros", "config": {}}, "kernel_regularizer": null, "bias_regularizer": null, "activity_regularizer": null, "kernel_constraint": null, "bias_constraint": null}, "inbound_nodes": [[["AihCxGwW", 0, 0, {}]]]}, {"name": "BNdggxgy", "class_name": "BatchNormalization", "config": {"name": "BNdggxgy", "trainable": true, "axis": 1, "momentum": 1.0, "epsilon": 1e-05, "center": true, "scale": true, "beta_initializer": {"class_name": "Zeros", "config": {}}, "gamma_initializer": {"class_name": "Ones", "config": {}}, "moving_mean_initializer": {"class_name": "Zeros", "config": {}}, "moving_variance_initializer": {"class_name": "Ones", "config": {}}, "beta_regularizer": null, "gamma_regularizer": null, "beta_constraint": null, "gamma_constraint": null}, "inbound_nodes": [[["CUNCRXdv", 0, 0, {}]]]}, {"name": "re_lu_18", "class_name": "ReLU", "config": {"name": "re_lu_18", "trainable": true, "max_value": 6.0, "negative_slope": 0.0, "threshold": 0.0}, "inbound_nodes": [[["BNdggxgy", 0, 0, {}]]]}, {"name": "CcLuLhza_pad", "class_name": "ZeroPadding2D", "config": {"name": "CcLuLhza_pad", "trainable": true, "padding": [[1, 1], [1, 1]], "data_format": "channels_first"}, "inbound_nodes": [[["re_lu_18", 0, 0, {}]]]}, {"name": "depthwise_conv2d_9", "class_name": "DepthwiseConv2D", "config": {"name": "depthwise_conv2d_9", "trainable": true, "kernel_size": [3, 3], "strides": [1, 1], "padding": "valid", "data_format": "channels_first", "dilation_rate": [1, 1], "activation": "linear", "use_bias": false, "bias_initializer": {"class_name": "Zeros", "config": {}}, "bias_regularizer": null, "activity_regularizer": null, "bias_constraint": null, "depth_multiplier": 1, "depthwise_initializer": {"class_name": "VarianceScaling", "config": {"scale": 1.0, "mode": "fan_avg", "distribution": "uniform", "seed": null}}, "depthwise_regularizer": null, "depthwise_constraint": null}, "inbound_nodes": [[["CcLuLhza_pad", 0, 0, {}]]]}, {"name": "BNFtMSsd", "class_name": "BatchNormalization", "config": {"name": "BNFtMSsd", "trainable": true, "axis": 1, "momentum": 1.0, "epsilon": 1e-05, "center": true, "scale": true, "beta_initializer": {"class_name": "Zeros", "config": {}}, "gamma_initializer": {"class_name": "Ones", "config": {}}, "moving_mean_initializer": {"class_name": "Zeros", "config": {}}, "moving_variance_initializer": {"class_name": "Ones", "config": {}}, "beta_regularizer": null, "gamma_regularizer": null, "beta_constraint": null, "gamma_constraint": null}, "inbound_nodes": [[["depthwise_conv2d_9", 0, 0, {}]]]}, {"name": "re_lu_19", "class_name": "ReLU", "config": {"name": "re_lu_19", "trainable": true, "max_value": 6.0, "negative_slope": 0.0, "threshold": 0.0}, "inbound_nodes": [[["BNFtMSsd", 0, 0, {}]]]}, {"name": "CJdcddfe", "class_name": "Conv2D", "config": {"name": "CJdcddfe", "trainable": true, "filters": 64, "kernel_size": [1, 1], "strides": [1, 1], "padding": "valid", "data_format": "channels_first", "dilation_rate": [1, 1], "activation": "linear", "use_bias": false, "kernel_initializer": {"class_name": "Zeros", "config": {}}, "bias_initializer": {"class_name": "Zeros", "config": {}}, "kernel_regularizer": null, "bias_regularizer": null, "activity_regularizer": null, "kernel_constraint": null, "bias_constraint": null}, "inbound_nodes": [[["re_lu_19", 0, 0, {}]]]}, {"name": "BNKarBXB", "class_name": "BatchNormalization", "config": {"name": "BNKarBXB", "trainable": true, "axis": 1, "momentum": 1.0, "epsilon": 1e-05, "center": true, "scale": true, "beta_initializer": {"class_name": "Zeros", "config": {}}, "gamma_initializer": {"class_name": "Ones", "config": {}}, "moving_mean_initializer": {"class_name": "Zeros", "config": {}}, "moving_variance_initializer": {"class_name": "Ones", "config": {}}, "beta_regularizer": null, "gamma_regularizer": null, "beta_constraint": null, "gamma_constraint": null}, "inbound_nodes": [[["CJdcddfe", 0, 0, {}]]]}, {"name": "AUGlsZQd", "class_name": "Add", "config": {"name": "AUGlsZQd", "trainable": true}, "inbound_nodes": [[["BNKarBXB", 0, 0, {}], ["AihCxGwW", 0, 0, {}]]]}, {"name": "CWzCJTCi", "class_name": "Conv2D", "config": {"name": "CWzCJTCi", "trainable": true, "filters": 384, "kernel_size": [1, 1], "strides": [1, 1], "padding": "valid", "data_format": "channels_first", "dilation_rate": [1, 1], "activation": "linear", "use_bias": false, "kernel_initializer": {"class_name": "Zeros", "config": {}}, "bias_initializer": {"class_name": "Zeros", "config": {}}, "kernel_regularizer": null, "bias_regularizer": null, "activity_regularizer": null, "kernel_constraint": null, "bias_constraint": null}, "inbound_nodes": [[["AUGlsZQd", 0, 0, {}]]]}, {"name": "BNnbtCRY", "class_name": "BatchNormalization", "config": {"name": "BNnbtCRY", "trainable": true, "axis": 1, "momentum": 1.0, "epsilon": 1e-05, "center": true, "scale": true, "beta_initializer": {"class_name": "Zeros", "config": {}}, "gamma_initializer": {"class_name": "Ones", "config": {}}, "moving_mean_initializer": {"class_name": "Zeros", "config": {}}, "moving_variance_initializer": {"class_name": "Ones", "config": {}}, "beta_regularizer": null, "gamma_regularizer": null, "beta_constraint": null, "gamma_constraint": null}, "inbound_nodes": [[["CWzCJTCi", 0, 0, {}]]]}, {"name": "re_lu_20", "class_name": "ReLU", "config": {"name": "re_lu_20", "trainable": true, "max_value": 6.0, "negative_slope": 0.0, "threshold": 0.0}, "inbound_nodes": [[["BNnbtCRY", 0, 0, {}]]]}, {"name": "CgOgXMqp_pad", "class_name": "ZeroPadding2D", "config": {"name": "CgOgXMqp_pad", "trainable": true, "padding": [[1, 1], [1, 1]], "data_format": "channels_first"}, "inbound_nodes": [[["re_lu_20", 0, 0, {}]]]}, {"name": "depthwise_conv2d_10", "class_name": "DepthwiseConv2D", "config": {"name": "depthwise_conv2d_10", "trainable": true, "kernel_size": [3, 3], "strides": [1, 1], "padding": "valid", "data_format": "channels_first", "dilation_rate": [1, 1], "activation": "linear", "use_bias": false, "bias_initializer": {"class_name": "Zeros", "config": {}}, "bias_regularizer": null, "activity_regularizer": null, "bias_constraint": null, "depth_multiplier": 1, "depthwise_initializer": {"class_name": "VarianceScaling", "config": {"scale": 1.0, "mode": "fan_avg", "distribution": "uniform", "seed": null}}, "depthwise_regularizer": null, "depthwise_constraint": null}, "inbound_nodes": [[["CgOgXMqp_pad", 0, 0, {}]]]}, {"name": "BNfkeAjr", "class_name": "BatchNormalization", "config": {"name": "BNfkeAjr", "trainable": true, "axis": 1, "momentum": 1.0, "epsilon": 1e-05, "center": true, "scale": true, "beta_initializer": {"class_name": "Zeros", "config": {}}, "gamma_initializer": {"class_name": "Ones", "config": {}}, "moving_mean_initializer": {"class_name": "Zeros", "config": {}}, "moving_variance_initializer": {"class_name": "Ones", "config": {}}, "beta_regularizer": null, "gamma_regularizer": null, "beta_constraint": null, "gamma_constraint": null}, "inbound_nodes": [[["depthwise_conv2d_10", 0, 0, {}]]]}, {"name": "re_lu_21", "class_name": "ReLU", "config": {"name": "re_lu_21", "trainable": true, "max_value": 6.0, "negative_slope": 0.0, "threshold": 0.0}, "inbound_nodes": [[["BNfkeAjr", 0, 0, {}]]]}, {"name": "CWYfFhnt", "class_name": "Conv2D", "config": {"name": "CWYfFhnt", "trainable": true, "filters": 64, "kernel_size": [1, 1], "strides": [1, 1], "padding": "valid", "data_format": "channels_first", "dilation_rate": [1, 1], "activation": "linear", "use_bias": false, "kernel_initializer": {"class_name": "Zeros", "config": {}}, "bias_initializer": {"class_name": "Zeros", "config": {}}, "kernel_regularizer": null, "bias_regularizer": null, "activity_regularizer": null, "kernel_constraint": null, "bias_constraint": null}, "inbound_nodes": [[["re_lu_21", 0, 0, {}]]]}, {"name": "BNDaCdtT", "class_name": "BatchNormalization", "config": {"name": "BNDaCdtT", "trainable": true, "axis": 1, "momentum": 1.0, "epsilon": 1e-05, "center": true, "scale": true, "beta_initializer": {"class_name": "Zeros", "config": {}}, "gamma_initializer": {"class_name": "Ones", "config": {}}, "moving_mean_initializer": {"class_name": "Zeros", "config": {}}, "moving_variance_initializer": {"class_name": "Ones", "config": {}}, "beta_regularizer": null, "gamma_regularizer": null, "beta_constraint": null, "gamma_constraint": null}, "inbound_nodes": [[["CWYfFhnt", 0, 0, {}]]]}, {"name": "ALOBBwze", "class_name": "Add", "config": {"name": "ALOBBwze", "trainable": true}, "inbound_nodes": [[["BNDaCdtT", 0, 0, {}], ["AUGlsZQd", 0, 0, {}]]]}, {"name": "CbroHZri", "class_name": "Conv2D", "config": {"name": "CbroHZri", "trainable": true, "filters": 384, "kernel_size": [1, 1], "strides": [1, 1], "padding": "valid", "data_format": "channels_first", "dilation_rate": [1, 1], "activation": "linear", "use_bias": false, "kernel_initializer": {"class_name": "Zeros", "config": {}}, "bias_initializer": {"class_name": "Zeros", "config": {}}, "kernel_regularizer": null, "bias_regularizer": null, "activity_regularizer": null, "kernel_constraint": null, "bias_constraint": null}, "inbound_nodes": [[["ALOBBwze", 0, 0, {}]]]}, {"name": "BNLjtmti", "class_name": "BatchNormalization", "config": {"name": "BNLjtmti", "trainable": true, "axis": 1, "momentum": 1.0, "epsilon": 1e-05, "center": true, "scale": true, "beta_initializer": {"class_name": "Zeros", "config": {}}, "gamma_initializer": {"class_name": "Ones", "config": {}}, "moving_mean_initializer": {"class_name": "Zeros", "config": {}}, "moving_variance_initializer": {"class_name": "Ones", "config": {}}, "beta_regularizer": null, "gamma_regularizer": null, "beta_constraint": null, "gamma_constraint": null}, "inbound_nodes": [[["CbroHZri", 0, 0, {}]]]}, {"name": "re_lu_22", "class_name": "ReLU", "config": {"name": "re_lu_22", "trainable": true, "max_value": 6.0, "negative_slope": 0.0, "threshold": 0.0}, "inbound_nodes": [[["BNLjtmti", 0, 0, {}]]]}, {"name": "CEKmxluV_pad", "class_name": "ZeroPadding2D", "config": {"name": "CEKmxluV_pad", "trainable": true, "padding": [[1, 1], [1, 1]], "data_format": "channels_first"}, "inbound_nodes": [[["re_lu_22", 0, 0, {}]]]}, {"name": "depthwise_conv2d_11", "class_name": "DepthwiseConv2D", "config": {"name": "depthwise_conv2d_11", "trainable": true, "kernel_size": [3, 3], "strides": [1, 1], "padding": "valid", "data_format": "channels_first", "dilation_rate": [1, 1], "activation": "linear", "use_bias": false, "bias_initializer": {"class_name": "Zeros", "config": {}}, "bias_regularizer": null, "activity_regularizer": null, "bias_constraint": null, "depth_multiplier": 1, "depthwise_initializer": {"class_name": "VarianceScaling", "config": {"scale": 1.0, "mode": "fan_avg", "distribution": "uniform", "seed": null}}, "depthwise_regularizer": null, "depthwise_constraint": null}, "inbound_nodes": [[["CEKmxluV_pad", 0, 0, {}]]]}, {"name": "BNZuvXJE", "class_name": "BatchNormalization", "config": {"name": "BNZuvXJE", "trainable": true, "axis": 1, "momentum": 1.0, "epsilon": 1e-05, "center": true, "scale": true, "beta_initializer": {"class_name": "Zeros", "config": {}}, "gamma_initializer": {"class_name": "Ones", "config": {}}, "moving_mean_initializer": {"class_name": "Zeros", "config": {}}, "moving_variance_initializer": {"class_name": "Ones", "config": {}}, "beta_regularizer": null, "gamma_regularizer": null, "beta_constraint": null, "gamma_constraint": null}, "inbound_nodes": [[["depthwise_conv2d_11", 0, 0, {}]]]}, {"name": "re_lu_23", "class_name": "ReLU", "config": {"name": "re_lu_23", "trainable": true, "max_value": 6.0, "negative_slope": 0.0, "threshold": 0.0}, "inbound_nodes": [[["BNZuvXJE", 0, 0, {}]]]}, {"name": "CNbzfZUF", "class_name": "Conv2D", "config": {"name": "CNbzfZUF", "trainable": true, "filters": 96, "kernel_size": [1, 1], "strides": [1, 1], "padding": "valid", "data_format": "channels_first", "dilation_rate": [1, 1], "activation": "linear", "use_bias": false, "kernel_initializer": {"class_name": "Zeros", "config": {}}, "bias_initializer": {"class_name": "Zeros", "config": {}}, "kernel_regularizer": null, "bias_regularizer": null, "activity_regularizer": null, "kernel_constraint": null, "bias_constraint": null}, "inbound_nodes": [[["re_lu_23", 0, 0, {}]]]}, {"name": "BNiYgEOq", "class_name": "BatchNormalization", "config": {"name": "BNiYgEOq", "trainable": true, "axis": 1, "momentum": 1.0, "epsilon": 1e-05, "center": true, "scale": true, "beta_initializer": {"class_name": "Zeros", "config": {}}, "gamma_initializer": {"class_name": "Ones", "config": {}}, "moving_mean_initializer": {"class_name": "Zeros", "config": {}}, "moving_variance_initializer": {"class_name": "Ones", "config": {}}, "beta_regularizer": null, "gamma_regularizer": null, "beta_constraint": null, "gamma_constraint": null}, "inbound_nodes": [[["CNbzfZUF", 0, 0, {}]]]}, {"name": "CjHEYnNj", "class_name": "Conv2D", "config": {"name": "CjHEYnNj", "trainable": true, "filters": 576, "kernel_size": [1, 1], "strides": [1, 1], "padding": "valid", "data_format": "channels_first", "dilation_rate": [1, 1], "activation": "linear", "use_bias": false, "kernel_initializer": {"class_name": "Zeros", "config": {}}, "bias_initializer": {"class_name": "Zeros", "config": {}}, "kernel_regularizer": null, "bias_regularizer": null, "activity_regularizer": null, "kernel_constraint": null, "bias_constraint": null}, "inbound_nodes": [[["BNiYgEOq", 0, 0, {}]]]}, {"name": "BNagQNaF", "class_name": "BatchNormalization", "config": {"name": "BNagQNaF", "trainable": true, "axis": 1, "momentum": 1.0, "epsilon": 1e-05, "center": true, "scale": true, "beta_initializer": {"class_name": "Zeros", "config": {}}, "gamma_initializer": {"class_name": "Ones", "config": {}}, "moving_mean_initializer": {"class_name": "Zeros", "config": {}}, "moving_variance_initializer": {"class_name": "Ones", "config": {}}, "beta_regularizer": null, "gamma_regularizer": null, "beta_constraint": null, "gamma_constraint": null}, "inbound_nodes": [[["CjHEYnNj", 0, 0, {}]]]}, {"name": "re_lu_24", "class_name": "ReLU", "config": {"name": "re_lu_24", "trainable": true, "max_value": 6.0, "negative_slope": 0.0, "threshold": 0.0}, "inbound_nodes": [[["BNagQNaF", 0, 0, {}]]]}, {"name": "CZHoohcS_pad", "class_name": "ZeroPadding2D", "config": {"name": "CZHoohcS_pad", "trainable": true, "padding": [[1, 1], [1, 1]], "data_format": "channels_first"}, "inbound_nodes": [[["re_lu_24", 0, 0, {}]]]}, {"name": "depthwise_conv2d_12", "class_name": "DepthwiseConv2D", "config": {"name": "depthwise_conv2d_12", "trainable": true, "kernel_size": [3, 3], "strides": [1, 1], "padding": "valid", "data_format": "channels_first", "dilation_rate": [1, 1], "activation": "linear", "use_bias": false, "bias_initializer": {"class_name": "Zeros", "config": {}}, "bias_regularizer": null, "activity_regularizer": null, "bias_constraint": null, "depth_multiplier": 1, "depthwise_initializer": {"class_name": "VarianceScaling", "config": {"scale": 1.0, "mode": "fan_avg", "distribution": "uniform", "seed": null}}, "depthwise_regularizer": null, "depthwise_constraint": null}, "inbound_nodes": [[["CZHoohcS_pad", 0, 0, {}]]]}, {"name": "BNMHCXzc", "class_name": "BatchNormalization", "config": {"name": "BNMHCXzc", "trainable": true, "axis": 1, "momentum": 1.0, "epsilon": 1e-05, "center": true, "scale": true, "beta_initializer": {"class_name": "Zeros", "config": {}}, "gamma_initializer": {"class_name": "Ones", "config": {}}, "moving_mean_initializer": {"class_name": "Zeros", "config": {}}, "moving_variance_initializer": {"class_name": "Ones", "config": {}}, "beta_regularizer": null, "gamma_regularizer": null, "beta_constraint": null, "gamma_constraint": null}, "inbound_nodes": [[["depthwise_conv2d_12", 0, 0, {}]]]}, {"name": "re_lu_25", "class_name": "ReLU", "config": {"name": "re_lu_25", "trainable": true, "max_value": 6.0, "negative_slope": 0.0, "threshold": 0.0}, "inbound_nodes": [[["BNMHCXzc", 0, 0, {}]]]}, {"name": "CgoyZGrF", "class_name": "Conv2D", "config": {"name": "CgoyZGrF", "trainable": true, "filters": 96, "kernel_size": [1, 1], "strides": [1, 1], "padding": "valid", "data_format": "channels_first", "dilation_rate": [1, 1], "activation": "linear", "use_bias": false, "kernel_initializer": {"class_name": "Zeros", "config": {}}, "bias_initializer": {"class_name": "Zeros", "config": {}}, "kernel_regularizer": null, "bias_regularizer": null, "activity_regularizer": null, "kernel_constraint": null, "bias_constraint": null}, "inbound_nodes": [[["re_lu_25", 0, 0, {}]]]}, {"name": "BNPMQHuk", "class_name": "BatchNormalization", "config": {"name": "BNPMQHuk", "trainable": true, "axis": 1, "momentum": 1.0, "epsilon": 1e-05, "center": true, "scale": true, "beta_initializer": {"class_name": "Zeros", "config": {}}, "gamma_initializer": {"class_name": "Ones", "config": {}}, "moving_mean_initializer": {"class_name": "Zeros", "config": {}}, "moving_variance_initializer": {"class_name": "Ones", "config": {}}, "beta_regularizer": null, "gamma_regularizer": null, "beta_constraint": null, "gamma_constraint": null}, "inbound_nodes": [[["CgoyZGrF", 0, 0, {}]]]}, {"name": "ATyZvdEX", "class_name": "Add", "config": {"name": "ATyZvdEX", "trainable": true}, "inbound_nodes": [[["BNPMQHuk", 0, 0, {}], ["BNiYgEOq", 0, 0, {}]]]}, {"name": "CPFgRGWC", "class_name": "Conv2D", "config": {"name": "CPFgRGWC", "trainable": true, "filters": 576, "kernel_size": [1, 1], "strides": [1, 1], "padding": "valid", "data_format": "channels_first", "dilation_rate": [1, 1], "activation": "linear", "use_bias": false, "kernel_initializer": {"class_name": "Zeros", "config": {}}, "bias_initializer": {"class_name": "Zeros", "config": {}}, "kernel_regularizer": null, "bias_regularizer": null, "activity_regularizer": null, "kernel_constraint": null, "bias_constraint": null}, "inbound_nodes": [[["ATyZvdEX", 0, 0, {}]]]}, {"name": "BNEwtqpC", "class_name": "BatchNormalization", "config": {"name": "BNEwtqpC", "trainable": true, "axis": 1, "momentum": 1.0, "epsilon": 1e-05, "center": true, "scale": true, "beta_initializer": {"class_name": "Zeros", "config": {}}, "gamma_initializer": {"class_name": "Ones", "config": {}}, "moving_mean_initializer": {"class_name": "Zeros", "config": {}}, "moving_variance_initializer": {"class_name": "Ones", "config": {}}, "beta_regularizer": null, "gamma_regularizer": null, "beta_constraint": null, "gamma_constraint": null}, "inbound_nodes": [[["CPFgRGWC", 0, 0, {}]]]}, {"name": "re_lu_26", "class_name": "ReLU", "config": {"name": "re_lu_26", "trainable": true, "max_value": 6.0, "negative_slope": 0.0, "threshold": 0.0}, "inbound_nodes": [[["BNEwtqpC", 0, 0, {}]]]}, {"name": "CvXRBofp_pad", "class_name": "ZeroPadding2D", "config": {"name": "CvXRBofp_pad", "trainable": true, "padding": [[1, 1], [1, 1]], "data_format": "channels_first"}, "inbound_nodes": [[["re_lu_26", 0, 0, {}]]]}, {"name": "depthwise_conv2d_13", "class_name": "DepthwiseConv2D", "config": {"name": "depthwise_conv2d_13", "trainable": true, "kernel_size": [3, 3], "strides": [1, 1], "padding": "valid", "data_format": "channels_first", "dilation_rate": [1, 1], "activation": "linear", "use_bias": false, "bias_initializer": {"class_name": "Zeros", "config": {}}, "bias_regularizer": null, "activity_regularizer": null, "bias_constraint": null, "depth_multiplier": 1, "depthwise_initializer": {"class_name": "VarianceScaling", "config": {"scale": 1.0, "mode": "fan_avg", "distribution": "uniform", "seed": null}}, "depthwise_regularizer": null, "depthwise_constraint": null}, "inbound_nodes": [[["CvXRBofp_pad", 0, 0, {}]]]}, {"name": "BNqMCXyH", "class_name": "BatchNormalization", "config": {"name": "BNqMCXyH", "trainable": true, "axis": 1, "momentum": 1.0, "epsilon": 1e-05, "center": true, "scale": true, "beta_initializer": {"class_name": "Zeros", "config": {}}, "gamma_initializer": {"class_name": "Ones", "config": {}}, "moving_mean_initializer": {"class_name": "Zeros", "config": {}}, "moving_variance_initializer": {"class_name": "Ones", "config": {}}, "beta_regularizer": null, "gamma_regularizer": null, "beta_constraint": null, "gamma_constraint": null}, "inbound_nodes": [[["depthwise_conv2d_13", 0, 0, {}]]]}, {"name": "re_lu_27", "class_name": "ReLU", "config": {"name": "re_lu_27", "trainable": true, "max_value": 6.0, "negative_slope": 0.0, "threshold": 0.0}, "inbound_nodes": [[["BNqMCXyH", 0, 0, {}]]]}, {"name": "CxjHwPuK", "class_name": "Conv2D", "config": {"name": "CxjHwPuK", "trainable": true, "filters": 96, "kernel_size": [1, 1], "strides": [1, 1], "padding": "valid", "data_format": "channels_first", "dilation_rate": [1, 1], "activation": "linear", "use_bias": false, "kernel_initializer": {"class_name": "Zeros", "config": {}}, "bias_initializer": {"class_name": "Zeros", "config": {}}, "kernel_regularizer": null, "bias_regularizer": null, "activity_regularizer": null, "kernel_constraint": null, "bias_constraint": null}, "inbound_nodes": [[["re_lu_27", 0, 0, {}]]]}, {"name": "BNobLcYE", "class_name": "BatchNormalization", "config": {"name": "BNobLcYE", "trainable": true, "axis": 1, "momentum": 1.0, "epsilon": 1e-05, "center": true, "scale": true, "beta_initializer": {"class_name": "Zeros", "config": {}}, "gamma_initializer": {"class_name": "Ones", "config": {}}, "moving_mean_initializer": {"class_name": "Zeros", "config": {}}, "moving_variance_initializer": {"class_name": "Ones", "config": {}}, "beta_regularizer": null, "gamma_regularizer": null, "beta_constraint": null, "gamma_constraint": null}, "inbound_nodes": [[["CxjHwPuK", 0, 0, {}]]]}, {"name": "AvRIreaa", "class_name": "Add", "config": {"name": "AvRIreaa", "trainable": true}, "inbound_nodes": [[["BNobLcYE", 0, 0, {}], ["ATyZvdEX", 0, 0, {}]]]}, {"name": "CcbVZUQh", "class_name": "Conv2D", "config": {"name": "CcbVZUQh", "trainable": true, "filters": 576, "kernel_size": [1, 1], "strides": [1, 1], "padding": "valid", "data_format": "channels_first", "dilation_rate": [1, 1], "activation": "linear", "use_bias": false, "kernel_initializer": {"class_name": "Zeros", "config": {}}, "bias_initializer": {"class_name": "Zeros", "config": {}}, "kernel_regularizer": null, "bias_regularizer": null, "activity_regularizer": null, "kernel_constraint": null, "bias_constraint": null}, "inbound_nodes": [[["AvRIreaa", 0, 0, {}]]]}, {"name": "BNsqOqBe", "class_name": "BatchNormalization", "config": {"name": "BNsqOqBe", "trainable": true, "axis": 1, "momentum": 1.0, "epsilon": 1e-05, "center": true, "scale": true, "beta_initializer": {"class_name": "Zeros", "config": {}}, "gamma_initializer": {"class_name": "Ones", "config": {}}, "moving_mean_initializer": {"class_name": "Zeros", "config": {}}, "moving_variance_initializer": {"class_name": "Ones", "config": {}}, "beta_regularizer": null, "gamma_regularizer": null, "beta_constraint": null, "gamma_constraint": null}, "inbound_nodes": [[["CcbVZUQh", 0, 0, {}]]]}, {"name": "re_lu_28", "class_name": "ReLU", "config": {"name": "re_lu_28", "trainable": true, "max_value": 6.0, "negative_slope": 0.0, "threshold": 0.0}, "inbound_nodes": [[["BNsqOqBe", 0, 0, {}]]]}, {"name": "CYQdgkBd_pad", "class_name": "ZeroPadding2D", "config": {"name": "CYQdgkBd_pad", "trainable": true, "padding": [[1, 1], [1, 1]], "data_format": "channels_first"}, "inbound_nodes": [[["re_lu_28", 0, 0, {}]]]}, {"name": "depthwise_conv2d_14", "class_name": "DepthwiseConv2D", "config": {"name": "depthwise_conv2d_14", "trainable": true, "kernel_size": [3, 3], "strides": [2, 2], "padding": "valid", "data_format": "channels_first", "dilation_rate": [1, 1], "activation": "linear", "use_bias": false, "bias_initializer": {"class_name": "Zeros", "config": {}}, "bias_regularizer": null, "activity_regularizer": null, "bias_constraint": null, "depth_multiplier": 1, "depthwise_initializer": {"class_name": "VarianceScaling", "config": {"scale": 1.0, "mode": "fan_avg", "distribution": "uniform", "seed": null}}, "depthwise_regularizer": null, "depthwise_constraint": null}, "inbound_nodes": [[["CYQdgkBd_pad", 0, 0, {}]]]}, {"name": "BNsYexcx", "class_name": "BatchNormalization", "config": {"name": "BNsYexcx", "trainable": true, "axis": 1, "momentum": 1.0, "epsilon": 1e-05, "center": true, "scale": true, "beta_initializer": {"class_name": "Zeros", "config": {}}, "gamma_initializer": {"class_name": "Ones", "config": {}}, "moving_mean_initializer": {"class_name": "Zeros", "config": {}}, "moving_variance_initializer": {"class_name": "Ones", "config": {}}, "beta_regularizer": null, "gamma_regularizer": null, "beta_constraint": null, "gamma_constraint": null}, "inbound_nodes": [[["depthwise_conv2d_14", 0, 0, {}]]]}, {"name": "re_lu_29", "class_name": "ReLU", "config": {"name": "re_lu_29", "trainable": true, "max_value": 6.0, "negative_slope": 0.0, "threshold": 0.0}, "inbound_nodes": [[["BNsYexcx", 0, 0, {}]]]}, {"name": "COtchxqO", "class_name": "Conv2D", "config": {"name": "COtchxqO", "trainable": true, "filters": 160, "kernel_size": [1, 1], "strides": [1, 1], "padding": "valid", "data_format": "channels_first", "dilation_rate": [1, 1], "activation": "linear", "use_bias": false, "kernel_initializer": {"class_name": "Zeros", "config": {}}, "bias_initializer": {"class_name": "Zeros", "config": {}}, "kernel_regularizer": null, "bias_regularizer": null, "activity_regularizer": null, "kernel_constraint": null, "bias_constraint": null}, "inbound_nodes": [[["re_lu_29", 0, 0, {}]]]}, {"name": "BNQGqyrS", "class_name": "BatchNormalization", "config": {"name": "BNQGqyrS", "trainable": true, "axis": 1, "momentum": 1.0, "epsilon": 1e-05, "center": true, "scale": true, "beta_initializer": {"class_name": "Zeros", "config": {}}, "gamma_initializer": {"class_name": "Ones", "config": {}}, "moving_mean_initializer": {"class_name": "Zeros", "config": {}}, "moving_variance_initializer": {"class_name": "Ones", "config": {}}, "beta_regularizer": null, "gamma_regularizer": null, "beta_constraint": null, "gamma_constraint": null}, "inbound_nodes": [[["COtchxqO", 0, 0, {}]]]}, {"name": "CbqTlptN", "class_name": "Conv2D", "config": {"name": "CbqTlptN", "trainable": true, "filters": 960, "kernel_size": [1, 1], "strides": [1, 1], "padding": "valid", "data_format": "channels_first", "dilation_rate": [1, 1], "activation": "linear", "use_bias": false, "kernel_initializer": {"class_name": "Zeros", "config": {}}, "bias_initializer": {"class_name": "Zeros", "config": {}}, "kernel_regularizer": null, "bias_regularizer": null, "activity_regularizer": null, "kernel_constraint": null, "bias_constraint": null}, "inbound_nodes": [[["BNQGqyrS", 0, 0, {}]]]}, {"name": "BNaOTsqv", "class_name": "BatchNormalization", "config": {"name": "BNaOTsqv", "trainable": true, "axis": 1, "momentum": 1.0, "epsilon": 1e-05, "center": true, "scale": true, "beta_initializer": {"class_name": "Zeros", "config": {}}, "gamma_initializer": {"class_name": "Ones", "config": {}}, "moving_mean_initializer": {"class_name": "Zeros", "config": {}}, "moving_variance_initializer": {"class_name": "Ones", "config": {}}, "beta_regularizer": null, "gamma_regularizer": null, "beta_constraint": null, "gamma_constraint": null}, "inbound_nodes": [[["CbqTlptN", 0, 0, {}]]]}, {"name": "re_lu_30", "class_name": "ReLU", "config": {"name": "re_lu_30", "trainable": true, "max_value": 6.0, "negative_slope": 0.0, "threshold": 0.0}, "inbound_nodes": [[["BNaOTsqv", 0, 0, {}]]]}, {"name": "CxehXXUG_pad", "class_name": "ZeroPadding2D", "config": {"name": "CxehXXUG_pad", "trainable": true, "padding": [[1, 1], [1, 1]], "data_format": "channels_first"}, "inbound_nodes": [[["re_lu_30", 0, 0, {}]]]}, {"name": "depthwise_conv2d_15", "class_name": "DepthwiseConv2D", "config": {"name": "depthwise_conv2d_15", "trainable": true, "kernel_size": [3, 3], "strides": [1, 1], "padding": "valid", "data_format": "channels_first", "dilation_rate": [1, 1], "activation": "linear", "use_bias": false, "bias_initializer": {"class_name": "Zeros", "config": {}}, "bias_regularizer": null, "activity_regularizer": null, "bias_constraint": null, "depth_multiplier": 1, "depthwise_initializer": {"class_name": "VarianceScaling", "config": {"scale": 1.0, "mode": "fan_avg", "distribution": "uniform", "seed": null}}, "depthwise_regularizer": null, "depthwise_constraint": null}, "inbound_nodes": [[["CxehXXUG_pad", 0, 0, {}]]]}, {"name": "BNWRvjVq", "class_name": "BatchNormalization", "config": {"name": "BNWRvjVq", "trainable": true, "axis": 1, "momentum": 1.0, "epsilon": 1e-05, "center": true, "scale": true, "beta_initializer": {"class_name": "Zeros", "config": {}}, "gamma_initializer": {"class_name": "Ones", "config": {}}, "moving_mean_initializer": {"class_name": "Zeros", "config": {}}, "moving_variance_initializer": {"class_name": "Ones", "config": {}}, "beta_regularizer": null, "gamma_regularizer": null, "beta_constraint": null, "gamma_constraint": null}, "inbound_nodes": [[["depthwise_conv2d_15", 0, 0, {}]]]}, {"name": "re_lu_31", "class_name": "ReLU", "config": {"name": "re_lu_31", "trainable": true, "max_value": 6.0, "negative_slope": 0.0, "threshold": 0.0}, "inbound_nodes": [[["BNWRvjVq", 0, 0, {}]]]}, {"name": "CaaiVOrW", "class_name": "Conv2D", "config": {"name": "CaaiVOrW", "trainable": true, "filters": 160, "kernel_size": [1, 1], "strides": [1, 1], "padding": "valid", "data_format": "channels_first", "dilation_rate": [1, 1], "activation": "linear", "use_bias": false, "kernel_initializer": {"class_name": "Zeros", "config": {}}, "bias_initializer": {"class_name": "Zeros", "config": {}}, "kernel_regularizer": null, "bias_regularizer": null, "activity_regularizer": null, "kernel_constraint": null, "bias_constraint": null}, "inbound_nodes": [[["re_lu_31", 0, 0, {}]]]}, {"name": "BNicNJdS", "class_name": "BatchNormalization", "config": {"name": "BNicNJdS", "trainable": true, "axis": 1, "momentum": 1.0, "epsilon": 1e-05, "center": true, "scale": true, "beta_initializer": {"class_name": "Zeros", "config": {}}, "gamma_initializer": {"class_name": "Ones", "config": {}}, "moving_mean_initializer": {"class_name": "Zeros", "config": {}}, "moving_variance_initializer": {"class_name": "Ones", "config": {}}, "beta_regularizer": null, "gamma_regularizer": null, "beta_constraint": null, "gamma_constraint": null}, "inbound_nodes": [[["CaaiVOrW", 0, 0, {}]]]}, {"name": "ABRjVKjy", "class_name": "Add", "config": {"name": "ABRjVKjy", "trainable": true}, "inbound_nodes": [[["BNicNJdS", 0, 0, {}], ["BNQGqyrS", 0, 0, {}]]]}, {"name": "CSwHVMej", "class_name": "Conv2D", "config": {"name": "CSwHVMej", "trainable": true, "filters": 960, "kernel_size": [1, 1], "strides": [1, 1], "padding": "valid", "data_format": "channels_first", "dilation_rate": [1, 1], "activation": "linear", "use_bias": false, "kernel_initializer": {"class_name": "Zeros", "config": {}}, "bias_initializer": {"class_name": "Zeros", "config": {}}, "kernel_regularizer": null, "bias_regularizer": null, "activity_regularizer": null, "kernel_constraint": null, "bias_constraint": null}, "inbound_nodes": [[["ABRjVKjy", 0, 0, {}]]]}, {"name": "BNsCAToJ", "class_name": "BatchNormalization", "config": {"name": "BNsCAToJ", "trainable": true, "axis": 1, "momentum": 1.0, "epsilon": 1e-05, "center": true, "scale": true, "beta_initializer": {"class_name": "Zeros", "config": {}}, "gamma_initializer": {"class_name": "Ones", "config": {}}, "moving_mean_initializer": {"class_name": "Zeros", "config": {}}, "moving_variance_initializer": {"class_name": "Ones", "config": {}}, "beta_regularizer": null, "gamma_regularizer": null, "beta_constraint": null, "gamma_constraint": null}, "inbound_nodes": [[["CSwHVMej", 0, 0, {}]]]}, {"name": "re_lu_32", "class_name": "ReLU", "config": {"name": "re_lu_32", "trainable": true, "max_value": 6.0, "negative_slope": 0.0, "threshold": 0.0}, "inbound_nodes": [[["BNsCAToJ", 0, 0, {}]]]}, {"name": "CBfgSTMp_pad", "class_name": "ZeroPadding2D", "config": {"name": "CBfgSTMp_pad", "trainable": true, "padding": [[1, 1], [1, 1]], "data_format": "channels_first"}, "inbound_nodes": [[["re_lu_32", 0, 0, {}]]]}, {"name": "depthwise_conv2d_16", "class_name": "DepthwiseConv2D", "config": {"name": "depthwise_conv2d_16", "trainable": true, "kernel_size": [3, 3], "strides": [1, 1], "padding": "valid", "data_format": "channels_first", "dilation_rate": [1, 1], "activation": "linear", "use_bias": false, "bias_initializer": {"class_name": "Zeros", "config": {}}, "bias_regularizer": null, "activity_regularizer": null, "bias_constraint": null, "depth_multiplier": 1, "depthwise_initializer": {"class_name": "VarianceScaling", "config": {"scale": 1.0, "mode": "fan_avg", "distribution": "uniform", "seed": null}}, "depthwise_regularizer": null, "depthwise_constraint": null}, "inbound_nodes": [[["CBfgSTMp_pad", 0, 0, {}]]]}, {"name": "BNFvAzGh", "class_name": "BatchNormalization", "config": {"name": "BNFvAzGh", "trainable": true, "axis": 1, "momentum": 1.0, "epsilon": 1e-05, "center": true, "scale": true, "beta_initializer": {"class_name": "Zeros", "config": {}}, "gamma_initializer": {"class_name": "Ones", "config": {}}, "moving_mean_initializer": {"class_name": "Zeros", "config": {}}, "moving_variance_initializer": {"class_name": "Ones", "config": {}}, "beta_regularizer": null, "gamma_regularizer": null, "beta_constraint": null, "gamma_constraint": null}, "inbound_nodes": [[["depthwise_conv2d_16", 0, 0, {}]]]}, {"name": "re_lu_33", "class_name": "ReLU", "config": {"name": "re_lu_33", "trainable": true, "max_value": 6.0, "negative_slope": 0.0, "threshold": 0.0}, "inbound_nodes": [[["BNFvAzGh", 0, 0, {}]]]}, {"name": "CsCvTAmp", "class_name": "Conv2D", "config": {"name": "CsCvTAmp", "trainable": true, "filters": 160, "kernel_size": [1, 1], "strides": [1, 1], "padding": "valid", "data_format": "channels_first", "dilation_rate": [1, 1], "activation": "linear", "use_bias": false, "kernel_initializer": {"class_name": "Zeros", "config": {}}, "bias_initializer": {"class_name": "Zeros", "config": {}}, "kernel_regularizer": null, "bias_regularizer": null, "activity_regularizer": null, "kernel_constraint": null, "bias_constraint": null}, "inbound_nodes": [[["re_lu_33", 0, 0, {}]]]}, {"name": "BNazNDUB", "class_name": "BatchNormalization", "config": {"name": "BNazNDUB", "trainable": true, "axis": 1, "momentum": 1.0, "epsilon": 1e-05, "center": true, "scale": true, "beta_initializer": {"class_name": "Zeros", "config": {}}, "gamma_initializer": {"class_name": "Ones", "config": {}}, "moving_mean_initializer": {"class_name": "Zeros", "config": {}}, "moving_variance_initializer": {"class_name": "Ones", "config": {}}, "beta_regularizer": null, "gamma_regularizer": null, "beta_constraint": null, "gamma_constraint": null}, "inbound_nodes": [[["CsCvTAmp", 0, 0, {}]]]}, {"name": "AFIbErBi", "class_name": "Add", "config": {"name": "AFIbErBi", "trainable": true}, "inbound_nodes": [[["BNazNDUB", 0, 0, {}], ["ABRjVKjy", 0, 0, {}]]]}, {"name": "CzrZXRRT", "class_name": "Conv2D", "config": {"name": "CzrZXRRT", "trainable": true, "filters": 960, "kernel_size": [1, 1], "strides": [1, 1], "padding": "valid", "data_format": "channels_first", "dilation_rate": [1, 1], "activation": "linear", "use_bias": false, "kernel_initializer": {"class_name": "Zeros", "config": {}}, "bias_initializer": {"class_name": "Zeros", "config": {}}, "kernel_regularizer": null, "bias_regularizer": null, "activity_regularizer": null, "kernel_constraint": null, "bias_constraint": null}, "inbound_nodes": [[["AFIbErBi", 0, 0, {}]]]}, {"name": "BNIGpUWz", "class_name": "BatchNormalization", "config": {"name": "BNIGpUWz", "trainable": true, "axis": 1, "momentum": 1.0, "epsilon": 1e-05, "center": true, "scale": true, "beta_initializer": {"class_name": "Zeros", "config": {}}, "gamma_initializer": {"class_name": "Ones", "config": {}}, "moving_mean_initializer": {"class_name": "Zeros", "config": {}}, "moving_variance_initializer": {"class_name": "Ones", "config": {}}, "beta_regularizer": null, "gamma_regularizer": null, "beta_constraint": null, "gamma_constraint": null}, "inbound_nodes": [[["CzrZXRRT", 0, 0, {}]]]}, {"name": "re_lu_34", "class_name": "ReLU", "config": {"name": "re_lu_34", "trainable": true, "max_value": 6.0, "negative_slope": 0.0, "threshold": 0.0}, "inbound_nodes": [[["BNIGpUWz", 0, 0, {}]]]}, {"name": "COQVKJlD_pad", "class_name": "ZeroPadding2D", "config": {"name": "COQVKJlD_pad", "trainable": true, "padding": [[1, 1], [1, 1]], "data_format": "channels_first"}, "inbound_nodes": [[["re_lu_34", 0, 0, {}]]]}, {"name": "depthwise_conv2d_17", "class_name": "DepthwiseConv2D", "config": {"name": "depthwise_conv2d_17", "trainable": true, "kernel_size": [3, 3], "strides": [1, 1], "padding": "valid", "data_format": "channels_first", "dilation_rate": [1, 1], "activation": "linear", "use_bias": false, "bias_initializer": {"class_name": "Zeros", "config": {}}, "bias_regularizer": null, "activity_regularizer": null, "bias_constraint": null, "depth_multiplier": 1, "depthwise_initializer": {"class_name": "VarianceScaling", "config": {"scale": 1.0, "mode": "fan_avg", "distribution": "uniform", "seed": null}}, "depthwise_regularizer": null, "depthwise_constraint": null}, "inbound_nodes": [[["COQVKJlD_pad", 0, 0, {}]]]}, {"name": "BNpQGoQZ", "class_name": "BatchNormalization", "config": {"name": "BNpQGoQZ", "trainable": true, "axis": 1, "momentum": 1.0, "epsilon": 1e-05, "center": true, "scale": true, "beta_initializer": {"class_name": "Zeros", "config": {}}, "gamma_initializer": {"class_name": "Ones", "config": {}}, "moving_mean_initializer": {"class_name": "Zeros", "config": {}}, "moving_variance_initializer": {"class_name": "Ones", "config": {}}, "beta_regularizer": null, "gamma_regularizer": null, "beta_constraint": null, "gamma_constraint": null}, "inbound_nodes": [[["depthwise_conv2d_17", 0, 0, {}]]]}, {"name": "re_lu_35", "class_name": "ReLU", "config": {"name": "re_lu_35", "trainable": true, "max_value": 6.0, "negative_slope": 0.0, "threshold": 0.0}, "inbound_nodes": [[["BNpQGoQZ", 0, 0, {}]]]}, {"name": "CASKLbfz", "class_name": "Conv2D", "config": {"name": "CASKLbfz", "trainable": true, "filters": 320, "kernel_size": [1, 1], "strides": [1, 1], "padding": "valid", "data_format": "channels_first", "dilation_rate": [1, 1], "activation": "linear", "use_bias": false, "kernel_initializer": {"class_name": "Zeros", "config": {}}, "bias_initializer": {"class_name": "Zeros", "config": {}}, "kernel_regularizer": null, "bias_regularizer": null, "activity_regularizer": null, "kernel_constraint": null, "bias_constraint": null}, "inbound_nodes": [[["re_lu_35", 0, 0, {}]]]}, {"name": "BNXTskdo", "class_name": "BatchNormalization", "config": {"name": "BNXTskdo", "trainable": true, "axis": 1, "momentum": 1.0, "epsilon": 1e-05, "center": true, "scale": true, "beta_initializer": {"class_name": "Zeros", "config": {}}, "gamma_initializer": {"class_name": "Ones", "config": {}}, "moving_mean_initializer": {"class_name": "Zeros", "config": {}}, "moving_variance_initializer": {"class_name": "Ones", "config": {}}, "beta_regularizer": null, "gamma_regularizer": null, "beta_constraint": null, "gamma_constraint": null}, "inbound_nodes": [[["CASKLbfz", 0, 0, {}]]]}, {"name": "CzmGjgTt", "class_name": "Conv2D", "config": {"name": "CzmGjgTt", "trainable": true, "filters": 256, "kernel_size": [1, 1], "strides": [1, 1], "padding": "valid", "data_format": "channels_first", "dilation_rate": [1, 1], "activation": "linear", "use_bias": false, "kernel_initializer": {"class_name": "Zeros", "config": {}}, "bias_initializer": {"class_name": "Zeros", "config": {}}, "kernel_regularizer": null, "bias_regularizer": null, "activity_regularizer": null, "kernel_constraint": null, "bias_constraint": null}, "inbound_nodes": [[["BNXTskdo", 0, 0, {}]]]}, {"name": "CfZDegyL", "class_name": "Conv2D", "config": {"name": "CfZDegyL", "trainable": true, "filters": 256, "kernel_size": [1, 1], "strides": [1, 1], "padding": "valid", "data_format": "channels_first", "dilation_rate": [1, 1], "activation": "linear", "use_bias": false, "kernel_initializer": {"class_name": "Zeros", "config": {}}, "bias_initializer": {"class_name": "Zeros", "config": {}}, "kernel_regularizer": null, "bias_regularizer": null, "activity_regularizer": null, "kernel_constraint": null, "bias_constraint": null}, "inbound_nodes": [[["AFIbErBi", 0, 0, {}]]]}, {"name": "APcVyHde", "class_name": "Add", "config": {"name": "APcVyHde", "trainable": true}, "inbound_nodes": [[["CzmGjgTt", 0, 0, {}], ["CfZDegyL", 0, 0, {}]]]}, {"name": "re_lu_36", "class_name": "ReLU", "config": {"name": "re_lu_36", "trainable": true, "max_value": 6.0, "negative_slope": 0.0, "threshold": 0.0}, "inbound_nodes": [[["APcVyHde", 0, 0, {}]]]}, {"name": "PnRmCblF", "class_name": "MaxPooling2D", "config": {"name": "PnRmCblF", "trainable": true, "pool_size": [5, 5], "padding": "same", "strides": [1, 1], "data_format": "channels_first"}, "inbound_nodes": [[["re_lu_36", 0, 0, {}]]]}, {"name": "CQtbnHKk", "class_name": "Conv2D", "config": {"name": "CQtbnHKk", "trainable": true, "filters": 256, "kernel_size": [1, 1], "strides": [1, 1], "padding": "valid", "data_format": "channels_first", "dilation_rate": [1, 1], "activation": "linear", "use_bias": false, "kernel_initializer": {"class_name": "Zeros", "config": {}}, "bias_initializer": {"class_name": "Zeros", "config": {}}, "kernel_regularizer": null, "bias_regularizer": null, "activity_regularizer": null, "kernel_constraint": null, "bias_constraint": null}, "inbound_nodes": [[["PnRmCblF", 0, 0, {}]]]}, {"name": "PXrDcHwQ", "class_name": "MaxPooling2D", "config": {"name": "PXrDcHwQ", "trainable": true, "pool_size": [5, 5], "padding": "same", "strides": [1, 1], "data_format": "channels_first"}, "inbound_nodes": [[["CQtbnHKk", 0, 0, {}]]]}, {"name": "CTTJdPJu", "class_name": "Conv2D", "config": {"name": "CTTJdPJu", "trainable": true, "filters": 256, "kernel_size": [1, 1], "strides": [1, 1], "padding": "valid", "data_format": "channels_first", "dilation_rate": [1, 1], "activation": "linear", "use_bias": false, "kernel_initializer": {"class_name": "Zeros", "config": {}}, "bias_initializer": {"class_name": "Zeros", "config": {}}, "kernel_regularizer": null, "bias_regularizer": null, "activity_regularizer": null, "kernel_constraint": null, "bias_constraint": null}, "inbound_nodes": [[["PXrDcHwQ", 0, 0, {}]]]}, {"name": "PhzONPag", "class_name": "MaxPooling2D", "config": {"name": "PhzONPag", "trainable": true, "pool_size": [5, 5], "padding": "same", "strides": [1, 1], "data_format": "channels_first"}, "inbound_nodes": [[["CTTJdPJu", 0, 0, {}]]]}, {"name": "CYRkSHGB", "class_name": "Conv2D", "config": {"name": "CYRkSHGB", "trainable": true, "filters": 256, "kernel_size": [1, 1], "strides": [1, 1], "padding": "valid", "data_format": "channels_first", "dilation_rate": [1, 1], "activation": "linear", "use_bias": false, "kernel_initializer": {"class_name": "Zeros", "config": {}}, "bias_initializer": {"class_name": "Zeros", "config": {}}, "kernel_regularizer": null, "bias_regularizer": null, "activity_regularizer": null, "kernel_constraint": null, "bias_constraint": null}, "inbound_nodes": [[["PhzONPag", 0, 0, {}]]]}, {"name": "ATzfeoLw", "class_name": "Add", "config": {"name": "ATzfeoLw", "trainable": true}, "inbound_nodes": [[["CQtbnHKk", 0, 0, {}], ["re_lu_36", 0, 0, {}]]]}, {"name": "PkHmLNPz", "class_name": "MaxPooling2D", "config": {"name": "PkHmLNPz", "trainable": true, "pool_size": [5, 5], "padding": "same", "strides": [1, 1], "data_format": "channels_first"}, "inbound_nodes": [[["CYRkSHGB", 0, 0, {}]]]}, {"name": "AQJyVPKb", "class_name": "Add", "config": {"name": "AQJyVPKb", "trainable": true}, "inbound_nodes": [[["CTTJdPJu", 0, 0, {}], ["ATzfeoLw", 0, 0, {}]]]}, {"name": "CMgdhvYT", "class_name": "Conv2D", "config": {"name": "CMgdhvYT", "trainable": true, "filters": 256, "kernel_size": [1, 1], "strides": [1, 1], "padding": "valid", "data_format": "channels_first", "dilation_rate": [1, 1], "activation": "linear", "use_bias": false, "kernel_initializer": {"class_name": "Zeros", "config": {}}, "bias_initializer": {"class_name": "Zeros", "config": {}}, "kernel_regularizer": null, "bias_regularizer": null, "activity_regularizer": null, "kernel_constraint": null, "bias_constraint": null}, "inbound_nodes": [[["PkHmLNPz", 0, 0, {}]]]}, {"name": "ANMcfSeu", "class_name": "Add", "config": {"name": "ANMcfSeu", "trainable": true}, "inbound_nodes": [[["CYRkSHGB", 0, 0, {}], ["AQJyVPKb", 0, 0, {}]]]}, {"name": "AIrTXKKB", "class_name": "Add", "config": {"name": "AIrTXKKB", "trainable": true}, "inbound_nodes": [[["CMgdhvYT", 0, 0, {}], ["ANMcfSeu", 0, 0, {}]]]}, {"name": "CVNdmPKg", "class_name": "Conv2D", "config": {"name": "CVNdmPKg", "trainable": true, "filters": 256, "kernel_size": [1, 1], "strides": [1, 1], "padding": "valid", "data_format": "channels_first", "dilation_rate": [1, 1], "activation": "linear", "use_bias": false, "kernel_initializer": {"class_name": "Zeros", "config": {}}, "bias_initializer": {"class_name": "Zeros", "config": {}}, "kernel_regularizer": null, "bias_regularizer": null, "activity_regularizer": null, "kernel_constraint": null, "bias_constraint": null}, "inbound_nodes": [[["ALOBBwze", 0, 0, {}]]]}, {"name": "CiNqoYAV", "class_name": "Conv2D", "config": {"name": "CiNqoYAV", "trainable": true, "filters": 256, "kernel_size": [1, 1], "strides": [1, 1], "padding": "valid", "data_format": "channels_first", "dilation_rate": [1, 1], "activation": "linear", "use_bias": false, "kernel_initializer": {"class_name": "Zeros", "config": {}}, "bias_initializer": {"class_name": "Zeros", "config": {}}, "kernel_regularizer": null, "bias_regularizer": null, "activity_regularizer": null, "kernel_constraint": null, "bias_constraint": null}, "inbound_nodes": [[["AvRIreaa", 0, 0, {}]]]}, {"name": "COkxToeC", "class_name": "Conv2D", "config": {"name": "COkxToeC", "trainable": true, "filters": 256, "kernel_size": [1, 1], "strides": [1, 1], "padding": "valid", "data_format": "channels_first", "dilation_rate": [1, 1], "activation": "linear", "use_bias": false, "kernel_initializer": {"class_name": "Zeros", "config": {}}, "bias_initializer": {"class_name": "Zeros", "config": {}}, "kernel_regularizer": null, "bias_regularizer": null, "activity_regularizer": null, "kernel_constraint": null, "bias_constraint": null}, "inbound_nodes": [[["AIrTXKKB", 0, 0, {}]]]}, {"name": "ALXxVntR", "class_name": "Add", "config": {"name": "ALXxVntR", "trainable": true}, "inbound_nodes": [[["CVNdmPKg", 0, 0, {}], ["CiNqoYAV", 0, 0, {}]]]}, {"name": "UPSLIcOE", "class_name": "UpSampling2D", "config": {"name": "UPSLIcOE", "trainable": true, "size": [2.0, 2.0], "data_format": "channels_first", "interpolation": "bilinear"}, "inbound_nodes": [[["COkxToeC", 0, 0, {}]]]}, {"name": "AbfNhalw", "class_name": "Add", "config": {"name": "AbfNhalw", "trainable": true}, "inbound_nodes": [[["ALXxVntR", 0, 0, {}], ["UPSLIcOE", 0, 0, {}]]]}, {"name": "re_lu_37", "class_name": "ReLU", "config": {"name": "re_lu_37", "trainable": true, "max_value": 6.0, "negative_slope": 0.0, "threshold": 0.0}, "inbound_nodes": [[["AbfNhalw", 0, 0, {}]]]}, {"name": "PXLwSCed", "class_name": "MaxPooling2D", "config": {"name": "PXLwSCed", "trainable": true, "pool_size": [5, 5], "padding": "same", "strides": [1, 1], "data_format": "channels_first"}, "inbound_nodes": [[["re_lu_37", 0, 0, {}]]]}, {"name": "ClXCmJUO", "class_name": "Conv2D", "config": {"name": "ClXCmJUO", "trainable": true, "filters": 256, "kernel_size": [1, 1], "strides": [1, 1], "padding": "valid", "data_format": "channels_first", "dilation_rate": [1, 1], "activation": "linear", "use_bias": false, "kernel_initializer": {"class_name": "Zeros", "config": {}}, "bias_initializer": {"class_name": "Zeros", "config": {}}, "kernel_regularizer": null, "bias_regularizer": null, "activity_regularizer": null, "kernel_constraint": null, "bias_constraint": null}, "inbound_nodes": [[["PXLwSCed", 0, 0, {}]]]}, {"name": "PolxfyTQ", "class_name": "MaxPooling2D", "config": {"name": "PolxfyTQ", "trainable": true, "pool_size": [5, 5], "padding": "same", "strides": [1, 1], "data_format": "channels_first"}, "inbound_nodes": [[["ClXCmJUO", 0, 0, {}]]]}, {"name": "CjvUUrJp", "class_name": "Conv2D", "config": {"name": "CjvUUrJp", "trainable": true, "filters": 256, "kernel_size": [1, 1], "strides": [1, 1], "padding": "valid", "data_format": "channels_first", "dilation_rate": [1, 1], "activation": "linear", "use_bias": false, "kernel_initializer": {"class_name": "Zeros", "config": {}}, "bias_initializer": {"class_name": "Zeros", "config": {}}, "kernel_regularizer": null, "bias_regularizer": null, "activity_regularizer": null, "kernel_constraint": null, "bias_constraint": null}, "inbound_nodes": [[["PolxfyTQ", 0, 0, {}]]]}, {"name": "PXEuvIKc", "class_name": "MaxPooling2D", "config": {"name": "PXEuvIKc", "trainable": true, "pool_size": [5, 5], "padding": "same", "strides": [1, 1], "data_format": "channels_first"}, "inbound_nodes": [[["CjvUUrJp", 0, 0, {}]]]}, {"name": "CTZWZYaZ", "class_name": "Conv2D", "config": {"name": "CTZWZYaZ", "trainable": true, "filters": 256, "kernel_size": [1, 1], "strides": [1, 1], "padding": "valid", "data_format": "channels_first", "dilation_rate": [1, 1], "activation": "linear", "use_bias": false, "kernel_initializer": {"class_name": "Zeros", "config": {}}, "bias_initializer": {"class_name": "Zeros", "config": {}}, "kernel_regularizer": null, "bias_regularizer": null, "activity_regularizer": null, "kernel_constraint": null, "bias_constraint": null}, "inbound_nodes": [[["PXEuvIKc", 0, 0, {}]]]}, {"name": "AXFhMQUS", "class_name": "Add", "config": {"name": "AXFhMQUS", "trainable": true}, "inbound_nodes": [[["ClXCmJUO", 0, 0, {}], ["re_lu_37", 0, 0, {}]]]}, {"name": "PuMHOsBU", "class_name": "MaxPooling2D", "config": {"name": "PuMHOsBU", "trainable": true, "pool_size": [5, 5], "padding": "same", "strides": [1, 1], "data_format": "channels_first"}, "inbound_nodes": [[["CTZWZYaZ", 0, 0, {}]]]}, {"name": "AOvizkzN", "class_name": "Add", "config": {"name": "AOvizkzN", "trainable": true}, "inbound_nodes": [[["CjvUUrJp", 0, 0, {}], ["AXFhMQUS", 0, 0, {}]]]}, {"name": "CktKYZlp", "class_name": "Conv2D", "config": {"name": "CktKYZlp", "trainable": true, "filters": 256, "kernel_size": [1, 1], "strides": [1, 1], "padding": "valid", "data_format": "channels_first", "dilation_rate": [1, 1], "activation": "linear", "use_bias": false, "kernel_initializer": {"class_name": "Zeros", "config": {}}, "bias_initializer": {"class_name": "Zeros", "config": {}}, "kernel_regularizer": null, "bias_regularizer": null, "activity_regularizer": null, "kernel_constraint": null, "bias_constraint": null}, "inbound_nodes": [[["PuMHOsBU", 0, 0, {}]]]}, {"name": "AbQGYExG", "class_name": "Add", "config": {"name": "AbQGYExG", "trainable": true}, "inbound_nodes": [[["CTZWZYaZ", 0, 0, {}], ["AOvizkzN", 0, 0, {}]]]}, {"name": "AxQRLZwF", "class_name": "Add", "config": {"name": "AxQRLZwF", "trainable": true}, "inbound_nodes": [[["CktKYZlp", 0, 0, {}], ["AbQGYExG", 0, 0, {}]]]}, {"name": "CGeuOiCS", "class_name": "Conv2D", "config": {"name": "CGeuOiCS", "trainable": true, "filters": 256, "kernel_size": [1, 1], "strides": [1, 1], "padding": "valid", "data_format": "channels_first", "dilation_rate": [1, 1], "activation": "linear", "use_bias": false, "kernel_initializer": {"class_name": "Zeros", "config": {}}, "bias_initializer": {"class_name": "Zeros", "config": {}}, "kernel_regularizer": null, "bias_regularizer": null, "activity_regularizer": null, "kernel_constraint": null, "bias_constraint": null}, "inbound_nodes": [[["AxQRLZwF", 0, 0, {}]]]}, {"name": "UPSLIfBk", "class_name": "UpSampling2D", "config": {"name": "UPSLIfBk", "trainable": true, "size": [2.0, 2.0], "data_format": "channels_first", "interpolation": "bilinear"}, "inbound_nodes": [[["CGeuOiCS", 0, 0, {}]]]}, {"name": "CsNXdhGm", "class_name": "Conv2D", "config": {"name": "CsNXdhGm", "trainable": true, "filters": 256, "kernel_size": [1, 1], "strides": [1, 1], "padding": "valid", "data_format": "channels_first", "dilation_rate": [1, 1], "activation": "linear", "use_bias": false, "kernel_initializer": {"class_name": "Zeros", "config": {}}, "bias_initializer": {"class_name": "Zeros", "config": {}}, "kernel_regularizer": null, "bias_regularizer": null, "activity_regularizer": null, "kernel_constraint": null, "bias_constraint": null}, "inbound_nodes": [[["AVdFfVLa", 0, 0, {}]]]}, {"name": "AaziAnvr", "class_name": "Add", "config": {"name": "AaziAnvr", "trainable": true}, "inbound_nodes": [[["UPSLIfBk", 0, 0, {}], ["CsNXdhGm", 0, 0, {}]]]}, {"name": "re_lu_38", "class_name": "ReLU", "config": {"name": "re_lu_38", "trainable": true, "max_value": 6.0, "negative_slope": 0.0, "threshold": 0.0}, "inbound_nodes": [[["AaziAnvr", 0, 0, {}]]]}, {"name": "PhYkjnra", "class_name": "MaxPooling2D", "config": {"name": "PhYkjnra", "trainable": true, "pool_size": [5, 5], "padding": "same", "strides": [1, 1], "data_format": "channels_first"}, "inbound_nodes": [[["re_lu_38", 0, 0, {}]]]}, {"name": "CvoQtGyV", "class_name": "Conv2D", "config": {"name": "CvoQtGyV", "trainable": true, "filters": 256, "kernel_size": [1, 1], "strides": [1, 1], "padding": "valid", "data_format": "channels_first", "dilation_rate": [1, 1], "activation": "linear", "use_bias": false, "kernel_initializer": {"class_name": "Zeros", "config": {}}, "bias_initializer": {"class_name": "Zeros", "config": {}}, "kernel_regularizer": null, "bias_regularizer": null, "activity_regularizer": null, "kernel_constraint": null, "bias_constraint": null}, "inbound_nodes": [[["PhYkjnra", 0, 0, {}]]]}, {"name": "PzKMPkWm", "class_name": "MaxPooling2D", "config": {"name": "PzKMPkWm", "trainable": true, "pool_size": [5, 5], "padding": "same", "strides": [1, 1], "data_format": "channels_first"}, "inbound_nodes": [[["CvoQtGyV", 0, 0, {}]]]}, {"name": "CzbgVTJg", "class_name": "Conv2D", "config": {"name": "CzbgVTJg", "trainable": true, "filters": 256, "kernel_size": [1, 1], "strides": [1, 1], "padding": "valid", "data_format": "channels_first", "dilation_rate": [1, 1], "activation": "linear", "use_bias": false, "kernel_initializer": {"class_name": "Zeros", "config": {}}, "bias_initializer": {"class_name": "Zeros", "config": {}}, "kernel_regularizer": null, "bias_regularizer": null, "activity_regularizer": null, "kernel_constraint": null, "bias_constraint": null}, "inbound_nodes": [[["PzKMPkWm", 0, 0, {}]]]}, {"name": "PKDlWCfw", "class_name": "MaxPooling2D", "config": {"name": "PKDlWCfw", "trainable": true, "pool_size": [5, 5], "padding": "same", "strides": [1, 1], "data_format": "channels_first"}, "inbound_nodes": [[["CzbgVTJg", 0, 0, {}]]]}, {"name": "CdqKiIdB", "class_name": "Conv2D", "config": {"name": "CdqKiIdB", "trainable": true, "filters": 256, "kernel_size": [1, 1], "strides": [1, 1], "padding": "valid", "data_format": "channels_first", "dilation_rate": [1, 1], "activation": "linear", "use_bias": false, "kernel_initializer": {"class_name": "Zeros", "config": {}}, "bias_initializer": {"class_name": "Zeros", "config": {}}, "kernel_regularizer": null, "bias_regularizer": null, "activity_regularizer": null, "kernel_constraint": null, "bias_constraint": null}, "inbound_nodes": [[["PKDlWCfw", 0, 0, {}]]]}, {"name": "AVYcCoLY", "class_name": "Add", "config": {"name": "AVYcCoLY", "trainable": true}, "inbound_nodes": [[["CvoQtGyV", 0, 0, {}], ["re_lu_38", 0, 0, {}]]]}, {"name": "PpVlBjEN", "class_name": "MaxPooling2D", "config": {"name": "PpVlBjEN", "trainable": true, "pool_size": [5, 5], "padding": "same", "strides": [1, 1], "data_format": "channels_first"}, "inbound_nodes": [[["CdqKiIdB", 0, 0, {}]]]}, {"name": "AUDcaRvF", "class_name": "Add", "config": {"name": "AUDcaRvF", "trainable": true}, "inbound_nodes": [[["CzbgVTJg", 0, 0, {}], ["AVYcCoLY", 0, 0, {}]]]}, {"name": "CEETSAIX", "class_name": "Conv2D", "config": {"name": "CEETSAIX", "trainable": true, "filters": 256, "kernel_size": [1, 1], "strides": [1, 1], "padding": "valid", "data_format": "channels_first", "dilation_rate": [1, 1], "activation": "linear", "use_bias": false, "kernel_initializer": {"class_name": "Zeros", "config": {}}, "bias_initializer": {"class_name": "Zeros", "config": {}}, "kernel_regularizer": null, "bias_regularizer": null, "activity_regularizer": null, "kernel_constraint": null, "bias_constraint": null}, "inbound_nodes": [[["PpVlBjEN", 0, 0, {}]]]}, {"name": "ARgLWkFa", "class_name": "Add", "config": {"name": "ARgLWkFa", "trainable": true}, "inbound_nodes": [[["CdqKiIdB", 0, 0, {}], ["AUDcaRvF", 0, 0, {}]]]}, {"name": "AOmSilPl", "class_name": "Add", "config": {"name": "AOmSilPl", "trainable": true}, "inbound_nodes": [[["CEETSAIX", 0, 0, {}], ["ARgLWkFa", 0, 0, {}]]]}, {"name": "CCKpGCJs", "class_name": "Conv2D", "config": {"name": "CCKpGCJs", "trainable": true, "filters": 256, "kernel_size": [1, 1], "strides": [1, 1], "padding": "valid", "data_format": "channels_first", "dilation_rate": [1, 1], "activation": "linear", "use_bias": false, "kernel_initializer": {"class_name": "Zeros", "config": {}}, "bias_initializer": {"class_name": "Zeros", "config": {}}, "kernel_regularizer": null, "bias_regularizer": null, "activity_regularizer": null, "kernel_constraint": null, "bias_constraint": null}, "inbound_nodes": [[["AOmSilPl", 0, 0, {}]]]}, {"name": "CdlahXnB", "class_name": "Conv2D", "config": {"name": "CdlahXnB", "trainable": true, "filters": 256, "kernel_size": [1, 1], "strides": [1, 1], "padding": "valid", "data_format": "channels_first", "dilation_rate": [1, 1], "activation": "linear", "use_bias": false, "kernel_initializer": {"class_name": "Zeros", "config": {}}, "bias_initializer": {"class_name": "Zeros", "config": {}}, "kernel_regularizer": null, "bias_regularizer": null, "activity_regularizer": null, "kernel_constraint": null, "bias_constraint": null}, "inbound_nodes": [[["ANfgzXsL", 0, 0, {}]]]}, {"name": "UPSLluOK", "class_name": "UpSampling2D", "config": {"name": "UPSLluOK", "trainable": true, "size": [2.0, 2.0], "data_format": "channels_first", "interpolation": "bilinear"}, "inbound_nodes": [[["CCKpGCJs", 0, 0, {}]]]}, {"name": "ABDzQHXl", "class_name": "Add", "config": {"name": "ABDzQHXl", "trainable": true}, "inbound_nodes": [[["CdlahXnB", 0, 0, {}], ["UPSLluOK", 0, 0, {}]]]}, {"name": "re_lu_39", "class_name": "ReLU", "config": {"name": "re_lu_39", "trainable": true, "max_value": 6.0, "negative_slope": 0.0, "threshold": 0.0}, "inbound_nodes": [[["ABDzQHXl", 0, 0, {}]]]}, {"name": "PbhCYauG", "class_name": "MaxPooling2D", "config": {"name": "PbhCYauG", "trainable": true, "pool_size": [5, 5], "padding": "same", "strides": [1, 1], "data_format": "channels_first"}, "inbound_nodes": [[["re_lu_39", 0, 0, {}]]]}, {"name": "CeEPXRFB", "class_name": "Conv2D", "config": {"name": "CeEPXRFB", "trainable": true, "filters": 256, "kernel_size": [1, 1], "strides": [1, 1], "padding": "valid", "data_format": "channels_first", "dilation_rate": [1, 1], "activation": "linear", "use_bias": false, "kernel_initializer": {"class_name": "Zeros", "config": {}}, "bias_initializer": {"class_name": "Zeros", "config": {}}, "kernel_regularizer": null, "bias_regularizer": null, "activity_regularizer": null, "kernel_constraint": null, "bias_constraint": null}, "inbound_nodes": [[["PbhCYauG", 0, 0, {}]]]}, {"name": "PUamNyvh", "class_name": "MaxPooling2D", "config": {"name": "PUamNyvh", "trainable": true, "pool_size": [5, 5], "padding": "same", "strides": [1, 1], "data_format": "channels_first"}, "inbound_nodes": [[["CeEPXRFB", 0, 0, {}]]]}, {"name": "CNTsWKWT", "class_name": "Conv2D", "config": {"name": "CNTsWKWT", "trainable": true, "filters": 256, "kernel_size": [1, 1], "strides": [1, 1], "padding": "valid", "data_format": "channels_first", "dilation_rate": [1, 1], "activation": "linear", "use_bias": false, "kernel_initializer": {"class_name": "Zeros", "config": {}}, "bias_initializer": {"class_name": "Zeros", "config": {}}, "kernel_regularizer": null, "bias_regularizer": null, "activity_regularizer": null, "kernel_constraint": null, "bias_constraint": null}, "inbound_nodes": [[["PUamNyvh", 0, 0, {}]]]}, {"name": "PoJQexwO", "class_name": "MaxPooling2D", "config": {"name": "PoJQexwO", "trainable": true, "pool_size": [5, 5], "padding": "same", "strides": [1, 1], "data_format": "channels_first"}, "inbound_nodes": [[["CNTsWKWT", 0, 0, {}]]]}, {"name": "CxJJIkMB", "class_name": "Conv2D", "config": {"name": "CxJJIkMB", "trainable": true, "filters": 256, "kernel_size": [1, 1], "strides": [1, 1], "padding": "valid", "data_format": "channels_first", "dilation_rate": [1, 1], "activation": "linear", "use_bias": false, "kernel_initializer": {"class_name": "Zeros", "config": {}}, "bias_initializer": {"class_name": "Zeros", "config": {}}, "kernel_regularizer": null, "bias_regularizer": null, "activity_regularizer": null, "kernel_constraint": null, "bias_constraint": null}, "inbound_nodes": [[["PoJQexwO", 0, 0, {}]]]}, {"name": "AOFiOfPe", "class_name": "Add", "config": {"name": "AOFiOfPe", "trainable": true}, "inbound_nodes": [[["CeEPXRFB", 0, 0, {}], ["re_lu_39", 0, 0, {}]]]}, {"name": "PZtfRckQ", "class_name": "MaxPooling2D", "config": {"name": "PZtfRckQ", "trainable": true, "pool_size": [5, 5], "padding": "same", "strides": [1, 1], "data_format": "channels_first"}, "inbound_nodes": [[["CxJJIkMB", 0, 0, {}]]]}, {"name": "AcLGCKrN", "class_name": "Add", "config": {"name": "AcLGCKrN", "trainable": true}, "inbound_nodes": [[["CNTsWKWT", 0, 0, {}], ["AOFiOfPe", 0, 0, {}]]]}, {"name": "CZsEJmJc", "class_name": "Conv2D", "config": {"name": "CZsEJmJc", "trainable": true, "filters": 256, "kernel_size": [1, 1], "strides": [1, 1], "padding": "valid", "data_format": "channels_first", "dilation_rate": [1, 1], "activation": "linear", "use_bias": false, "kernel_initializer": {"class_name": "Zeros", "config": {}}, "bias_initializer": {"class_name": "Zeros", "config": {}}, "kernel_regularizer": null, "bias_regularizer": null, "activity_regularizer": null, "kernel_constraint": null, "bias_constraint": null}, "inbound_nodes": [[["PZtfRckQ", 0, 0, {}]]]}, {"name": "AnOeRdCr", "class_name": "Add", "config": {"name": "AnOeRdCr", "trainable": true}, "inbound_nodes": [[["CxJJIkMB", 0, 0, {}], ["AcLGCKrN", 0, 0, {}]]]}, {"name": "AazrwvLk", "class_name": "Add", "config": {"name": "AazrwvLk", "trainable": true}, "inbound_nodes": [[["CZsEJmJc", 0, 0, {}], ["AnOeRdCr", 0, 0, {}]]]}, {"name": "CfFxyZxb_pad", "class_name": "ZeroPadding2D", "config": {"name": "CfFxyZxb_pad", "trainable": true, "padding": [[1, 1], [1, 1]], "data_format": "channels_first"}, "inbound_nodes": [[["AazrwvLk", 0, 0, {}]]]}, {"name": "CfFxyZxb", "class_name": "Conv2D", "config": {"name": "CfFxyZxb", "trainable": true, "filters": 21, "kernel_size": [3, 3], "strides": [1, 1], "padding": "valid", "data_format": "channels_first", "dilation_rate": [1, 1], "activation": "linear", "use_bias": true, "kernel_initializer": {"class_name": "Zeros", "config": {}}, "bias_initializer": {"class_name": "Zeros", "config": {}}, "kernel_regularizer": null, "bias_regularizer": null, "activity_regularizer": null, "kernel_constraint": null, "bias_constraint": null}, "inbound_nodes": [[["CfFxyZxb_pad", 0, 0, {}]]]}], "input_layers": [["input0", 0, 0]], "output_layers": [["CfFxyZxb", 0, 0]]}}}, "weightsManifest": [{"paths": ["group1-shard1of4", "group1-shard2of4", "group1-shard3of4", "group1-shard4of4"], "weights": [{"name": "BNBJDGJv/gamma", "shape": [96], "dtype": "float32"}, {"name": "BNBJDGJv/beta", "shape": [96], "dtype": "float32"}, {"name": "BNBJDGJv/moving_mean", "shape": [96], "dtype": "float32"}, {"name": "BNBJDGJv/moving_variance", "shape": [96], "dtype": "float32"}, {"name": "BNCGYmuc/gamma", "shape": [32], "dtype": "float32"}, {"name": "BNCGYmuc/beta", "shape": [32], "dtype": "float32"}, {"name": "BNCGYmuc/moving_mean", "shape": [32], "dtype": "float32"}, {"name": "BNCGYmuc/moving_variance", "shape": [32], "dtype": "float32"}, {"name": "BNDaCdtT/gamma", "shape": [64], "dtype": "float32"}, {"name": "BNDaCdtT/beta", "shape": [64], "dtype": "float32"}, {"name": "BNDaCdtT/moving_mean", "shape": [64], "dtype": "float32"}, {"name": "BNDaCdtT/moving_variance", "shape": [64], "dtype": "float32"}, {"name": "BNEwtqpC/gamma", "shape": [576], "dtype": "float32"}, {"name": "BNEwtqpC/beta", "shape": [576], "dtype": "float32"}, {"name": "BNEwtqpC/moving_mean", "shape": [576], "dtype": "float32"}, {"name": "BNEwtqpC/moving_variance", "shape": [576], "dtype": "float32"}, {"name": "BNFtMSsd/gamma", "shape": [384], "dtype": "float32"}, {"name": "BNFtMSsd/beta", "shape": [384], "dtype": "float32"}, {"name": "BNFtMSsd/moving_mean", "shape": [384], "dtype": "float32"}, {"name": "BNFtMSsd/moving_variance", "shape": [384], "dtype": "float32"}, {"name": "BNFvAzGh/gamma", "shape": [960], "dtype": "float32"}, {"name": "BNFvAzGh/beta", "shape": [960], "dtype": "float32"}, {"name": "BNFvAzGh/moving_mean", "shape": [960], "dtype": "float32"}, {"name": "BNFvAzGh/moving_variance", "shape": [960], "dtype": "float32"}, {"name": "BNIGpUWz/gamma", "shape": [960], "dtype": "float32"}, {"name": "BNIGpUWz/beta", "shape": [960], "dtype": "float32"}, {"name": "BNIGpUWz/moving_mean", "shape": [960], "dtype": "float32"}, {"name": "BNIGpUWz/moving_variance", "shape": [960], "dtype": "float32"}, {"name": "BNKIIHKQ/gamma", "shape": [24], "dtype": "float32"}, {"name": "BNKIIHKQ/beta", "shape": [24], "dtype": "float32"}, {"name": "BNKIIHKQ/moving_mean", "shape": [24], "dtype": "float32"}, {"name": "BNKIIHKQ/moving_variance", "shape": [24], "dtype": "float32"}, {"name": "BNKarBXB/gamma", "shape": [64], "dtype": "float32"}, {"name": "BNKarBXB/beta", "shape": [64], "dtype": "float32"}, {"name": "BNKarBXB/moving_mean", "shape": [64], "dtype": "float32"}, {"name": "BNKarBXB/moving_variance", "shape": [64], "dtype": "float32"}, {"name": "BNLjtmti/gamma", "shape": [384], "dtype": "float32"}, {"name": "BNLjtmti/beta", "shape": [384], "dtype": "float32"}, {"name": "BNLjtmti/moving_mean", "shape": [384], "dtype": "float32"}, {"name": "BNLjtmti/moving_variance", "shape": [384], "dtype": "float32"}, {"name": "BNMHCXzc/gamma", "shape": [576], "dtype": "float32"}, {"name": "BNMHCXzc/beta", "shape": [576], "dtype": "float32"}, {"name": "BNMHCXzc/moving_mean", "shape": [576], "dtype": "float32"}, {"name": "BNMHCXzc/moving_variance", "shape": [576], "dtype": "float32"}, {"name": "BNNBgNCa/gamma", "shape": [192], "dtype": "float32"}, {"name": "BNNBgNCa/beta", "shape": [192], "dtype": "float32"}, {"name": "BNNBgNCa/moving_mean", "shape": [192], "dtype": "float32"}, {"name": "BNNBgNCa/moving_variance", "shape": [192], "dtype": "float32"}, {"name": "BNPMQHuk/gamma", "shape": [96], "dtype": "float32"}, {"name": "BNPMQHuk/beta", "shape": [96], "dtype": "float32"}, {"name": "BNPMQHuk/moving_mean", "shape": [96], "dtype": "float32"}, {"name": "BNPMQHuk/moving_variance", "shape": [96], "dtype": "float32"}, {"name": "BNQGqyrS/gamma", "shape": [160], "dtype": "float32"}, {"name": "BNQGqyrS/beta", "shape": [160], "dtype": "float32"}, {"name": "BNQGqyrS/moving_mean", "shape": [160], "dtype": "float32"}, {"name": "BNQGqyrS/moving_variance", "shape": [160], "dtype": "float32"}, {"name": "BNRTQgKE/gamma", "shape": [192], "dtype": "float32"}, {"name": "BNRTQgKE/beta", "shape": [192], "dtype": "float32"}, {"name": "BNRTQgKE/moving_mean", "shape": [192], "dtype": "float32"}, {"name": "BNRTQgKE/moving_variance", "shape": [192], "dtype": "float32"}, {"name": "BNRsBACx/gamma", "shape": [144], "dtype": "float32"}, {"name": "BNRsBACx/beta", "shape": [144], "dtype": "float32"}, {"name": "BNRsBACx/moving_mean", "shape": [144], "dtype": "float32"}, {"name": "BNRsBACx/moving_variance", "shape": [144], "dtype": "float32"}, {"name": "BNSbkwMW/gamma", "shape": [64], "dtype": "float32"}, {"name": "BNSbkwMW/beta", "shape": [64], "dtype": "float32"}, {"name": "BNSbkwMW/moving_mean", "shape": [64], "dtype": "float32"}, {"name": "BNSbkwMW/moving_variance", "shape": [64], "dtype": "float32"}, {"name": "BNSettDH/gamma", "shape": [16], "dtype": "float32"}, {"name": "BNSettDH/beta", "shape": [16], "dtype": "float32"}, {"name": "BNSettDH/moving_mean", "shape": [16], "dtype": "float32"}, {"name": "BNSettDH/moving_variance", "shape": [16], "dtype": "float32"}, {"name": "BNTeTexM/gamma", "shape": [192], "dtype": "float32"}, {"name": "BNTeTexM/beta", "shape": [192], "dtype": "float32"}, {"name": "BNTeTexM/moving_mean", "shape": [192], "dtype": "float32"}, {"name": "BNTeTexM/moving_variance", "shape": [192], "dtype": "float32"}, {"name": "BNUWasaY/gamma", "shape": [32], "dtype": "float32"}, {"name": "BNUWasaY/beta", "shape": [32], "dtype": "float32"}, {"name": "BNUWasaY/moving_mean", "shape": [32], "dtype": "float32"}, {"name": "BNUWasaY/moving_variance", "shape": [32], "dtype": "float32"}, {"name": "BNVTRNkS/gamma", "shape": [384], "dtype": "float32"}, {"name": "BNVTRNkS/beta", "shape": [384], "dtype": "float32"}, {"name": "BNVTRNkS/moving_mean", "shape": [384], "dtype": "float32"}, {"name": "BNVTRNkS/moving_variance", "shape": [384], "dtype": "float32"}, {"name": "BNVbzFRS/gamma", "shape": [192], "dtype": "float32"}, {"name": "BNVbzFRS/beta", "shape": [192], "dtype": "float32"}, {"name": "BNVbzFRS/moving_mean", "shape": [192], "dtype": "float32"}, {"name": "BNVbzFRS/moving_variance", "shape": [192], "dtype": "float32"}, {"name": "BNWRvjVq/gamma", "shape": [960], "dtype": "float32"}, {"name": "BNWRvjVq/beta", "shape": [960], "dtype": "float32"}, {"name": "BNWRvjVq/moving_mean", "shape": [960], "dtype": "float32"}, {"name": "BNWRvjVq/moving_variance", "shape": [960], "dtype": "float32"}, {"name": "BNXTskdo/gamma", "shape": [320], "dtype": "float32"}, {"name": "BNXTskdo/beta", "shape": [320], "dtype": "float32"}, {"name": "BNXTskdo/moving_mean", "shape": [320], "dtype": "float32"}, {"name": "BNXTskdo/moving_variance", "shape": [320], "dtype": "float32"}, {"name": "BNZuvXJE/gamma", "shape": [384], "dtype": "float32"}, {"name": "BNZuvXJE/beta", "shape": [384], "dtype": "float32"}, {"name": "BNZuvXJE/moving_mean", "shape": [384], "dtype": "float32"}, {"name": "BNZuvXJE/moving_variance", "shape": [384], "dtype": "float32"}, {"name": "BNaOTsqv/gamma", "shape": [960], "dtype": "float32"}, {"name": "BNaOTsqv/beta", "shape": [960], "dtype": "float32"}, {"name": "BNaOTsqv/moving_mean", "shape": [960], "dtype": "float32"}, {"name": "BNaOTsqv/moving_variance", "shape": [960], "dtype": "float32"}, {"name": "BNagQNaF/gamma", "shape": [576], "dtype": "float32"}, {"name": "BNagQNaF/beta", "shape": [576], "dtype": "float32"}, {"name": "BNagQNaF/moving_mean", "shape": [576], "dtype": "float32"}, {"name": "BNagQNaF/moving_variance", "shape": [576], "dtype": "float32"}, {"name": "BNazNDUB/gamma", "shape": [160], "dtype": "float32"}, {"name": "BNazNDUB/beta", "shape": [160], "dtype": "float32"}, {"name": "BNazNDUB/moving_mean", "shape": [160], "dtype": "float32"}, {"name": "BNazNDUB/moving_variance", "shape": [160], "dtype": "float32"}, {"name": "BNczXQal/gamma", "shape": [144], "dtype": "float32"}, {"name": "BNczXQal/beta", "shape": [144], "dtype": "float32"}, {"name": "BNczXQal/moving_mean", "shape": [144], "dtype": "float32"}, {"name": "BNczXQal/moving_variance", "shape": [144], "dtype": "float32"}, {"name": "BNdggxgy/gamma", "shape": [384], "dtype": "float32"}, {"name": "BNdggxgy/beta", "shape": [384], "dtype": "float32"}, {"name": "BNdggxgy/moving_mean", "shape": [384], "dtype": "float32"}, {"name": "BNdggxgy/moving_variance", "shape": [384], "dtype": "float32"}, {"name": "BNfkeAjr/gamma", "shape": [384], "dtype": "float32"}, {"name": "BNfkeAjr/beta", "shape": [384], "dtype": "float32"}, {"name": "BNfkeAjr/moving_mean", "shape": [384], "dtype": "float32"}, {"name": "BNfkeAjr/moving_variance", "shape": [384], "dtype": "float32"}, {"name": "BNfsfxEt/gamma", "shape": [96], "dtype": "float32"}, {"name": "BNfsfxEt/beta", "shape": [96], "dtype": "float32"}, {"name": "BNfsfxEt/moving_mean", "shape": [96], "dtype": "float32"}, {"name": "BNfsfxEt/moving_variance", "shape": [96], "dtype": "float32"}, {"name": "BNhjtbif/gamma", "shape": [144], "dtype": "float32"}, {"name": "BNhjtbif/beta", "shape": [144], "dtype": "float32"}, {"name": "BNhjtbif/moving_mean", "shape": [144], "dtype": "float32"}, {"name": "BNhjtbif/moving_variance", "shape": [144], "dtype": "float32"}, {"name": "BNhntHCL/gamma", "shape": [192], "dtype": "float32"}, {"name": "BNhntHCL/beta", "shape": [192], "dtype": "float32"}, {"name": "BNhntHCL/moving_mean", "shape": [192], "dtype": "float32"}, {"name": "BNhntHCL/moving_variance", "shape": [192], "dtype": "float32"}, {"name": "BNhsVbfD/gamma", "shape": [144], "dtype": "float32"}, {"name": "BNhsVbfD/beta", "shape": [144], "dtype": "float32"}, {"name": "BNhsVbfD/moving_mean", "shape": [144], "dtype": "float32"}, {"name": "BNhsVbfD/moving_variance", "shape": [144], "dtype": "float32"}, {"name": "BNiYgEOq/gamma", "shape": [96], "dtype": "float32"}, {"name": "BNiYgEOq/beta", "shape": [96], "dtype": "float32"}, {"name": "BNiYgEOq/moving_mean", "shape": [96], "dtype": "float32"}, {"name": "BNiYgEOq/moving_variance", "shape": [96], "dtype": "float32"}, {"name": "BNicNJdS/gamma", "shape": [160], "dtype": "float32"}, {"name": "BNicNJdS/beta", "shape": [160], "dtype": "float32"}, {"name": "BNicNJdS/moving_mean", "shape": [160], "dtype": "float32"}, {"name": "BNicNJdS/moving_variance", "shape": [160], "dtype": "float32"}, {"name": "BNnbtCRY/gamma", "shape": [384], "dtype": "float32"}, {"name": "BNnbtCRY/beta", "shape": [384], "dtype": "float32"}, {"name": "BNnbtCRY/moving_mean", "shape": [384], "dtype": "float32"}, {"name": "BNnbtCRY/moving_variance", "shape": [384], "dtype": "float32"}, {"name": "BNobLcYE/gamma", "shape": [96], "dtype": "float32"}, {"name": "BNobLcYE/beta", "shape": [96], "dtype": "float32"}, {"name": "BNobLcYE/moving_mean", "shape": [96], "dtype": "float32"}, {"name": "BNobLcYE/moving_variance", "shape": [96], "dtype": "float32"}, {"name": "BNpQGoQZ/gamma", "shape": [960], "dtype": "float32"}, {"name": "BNpQGoQZ/beta", "shape": [960], "dtype": "float32"}, {"name": "BNpQGoQZ/moving_mean", "shape": [960], "dtype": "float32"}, {"name": "BNpQGoQZ/moving_variance", "shape": [960], "dtype": "float32"}, {"name": "BNpjbpaq/gamma", "shape": [24], "dtype": "float32"}, {"name": "BNpjbpaq/beta", "shape": [24], "dtype": "float32"}, {"name": "BNpjbpaq/moving_mean", "shape": [24], "dtype": "float32"}, {"name": "BNpjbpaq/moving_variance", "shape": [24], "dtype": "float32"}, {"name": "BNqMCXyH/gamma", "shape": [576], "dtype": "float32"}, {"name": "BNqMCXyH/beta", "shape": [576], "dtype": "float32"}, {"name": "BNqMCXyH/moving_mean", "shape": [576], "dtype": "float32"}, {"name": "BNqMCXyH/moving_variance", "shape": [576], "dtype": "float32"}, {"name": "BNqrvdyw/gamma", "shape": [64], "dtype": "float32"}, {"name": "BNqrvdyw/beta", "shape": [64], "dtype": "float32"}, {"name": "BNqrvdyw/moving_mean", "shape": [64], "dtype": "float32"}, {"name": "BNqrvdyw/moving_variance", "shape": [64], "dtype": "float32"}, {"name": "BNsCAToJ/gamma", "shape": [960], "dtype": "float32"}, {"name": "BNsCAToJ/beta", "shape": [960], "dtype": "float32"}, {"name": "BNsCAToJ/moving_mean", "shape": [960], "dtype": "float32"}, {"name": "BNsCAToJ/moving_variance", "shape": [960], "dtype": "float32"}, {"name": "BNsTVmnq/gamma", "shape": [32], "dtype": "float32"}, {"name": "BNsTVmnq/beta", "shape": [32], "dtype": "float32"}, {"name": "BNsTVmnq/moving_mean", "shape": [32], "dtype": "float32"}, {"name": "BNsTVmnq/moving_variance", "shape": [32], "dtype": "float32"}, {"name": "BNsYexcx/gamma", "shape": [576], "dtype": "float32"}, {"name": "BNsYexcx/beta", "shape": [576], "dtype": "float32"}, {"name": "BNsYexcx/moving_mean", "shape": [576], "dtype": "float32"}, {"name": "BNsYexcx/moving_variance", "shape": [576], "dtype": "float32"}, {"name": "BNsiDean/gamma", "shape": [32], "dtype": "float32"}, {"name": "BNsiDean/beta", "shape": [32], "dtype": "float32"}, {"name": "BNsiDean/moving_mean", "shape": [32], "dtype": "float32"}, {"name": "BNsiDean/moving_variance", "shape": [32], "dtype": "float32"}, {"name": "BNsqOqBe/gamma", "shape": [576], "dtype": "float32"}, {"name": "BNsqOqBe/beta", "shape": [576], "dtype": "float32"}, {"name": "BNsqOqBe/moving_mean", "shape": [576], "dtype": "float32"}, {"name": "BNsqOqBe/moving_variance", "shape": [576], "dtype": "float32"}, {"name": "BNtJbcBy/gamma", "shape": [384], "dtype": "float32"}, {"name": "BNtJbcBy/beta", "shape": [384], "dtype": "float32"}, {"name": "BNtJbcBy/moving_mean", "shape": [384], "dtype": "float32"}, {"name": "BNtJbcBy/moving_variance", "shape": [384], "dtype": "float32"}, {"name": "BNtbuygE/gamma", "shape": [32], "dtype": "float32"}, {"name": "BNtbuygE/beta", "shape": [32], "dtype": "float32"}, {"name": "BNtbuygE/moving_mean", "shape": [32], "dtype": "float32"}, {"name": "BNtbuygE/moving_variance", "shape": [32], "dtype": "float32"}, {"name": "BNzSLpKQ/gamma", "shape": [192], "dtype": "float32"}, {"name": "BNzSLpKQ/beta", "shape": [192], "dtype": "float32"}, {"name": "BNzSLpKQ/moving_mean", "shape": [192], "dtype": "float32"}, {"name": "BNzSLpKQ/moving_variance", "shape": [192], "dtype": "float32"}, {"name": "BNzcAhKx/gamma", "shape": [32], "dtype": "float32"}, {"name": "BNzcAhKx/beta", "shape": [32], "dtype": "float32"}, {"name": "BNzcAhKx/moving_mean", "shape": [32], "dtype": "float32"}, {"name": "BNzcAhKx/moving_variance", "shape": [32], "dtype": "float32"}, {"name": "CASKLbfz/kernel", "shape": [1, 1, 960, 320], "dtype": "float32"}, {"name": "CCKpGCJs/kernel", "shape": [1, 1, 256, 256], "dtype": "float32"}, {"name": "CDHWBJIm/kernel", "shape": [1, 1, 192, 32], "dtype": "float32"}, {"name": "CEETSAIX/kernel", "shape": [1, 1, 256, 256], "dtype": "float32"}, {"name": "CGeuOiCS/kernel", "shape": [1, 1, 256, 256], "dtype": "float32"}, {"name": "CJdcddfe/kernel", "shape": [1, 1, 384, 64], "dtype": "float32"}, {"name": "CLDHBvHr/kernel", "shape": [1, 1, 24, 144], "dtype": "float32"}, {"name": "CMgdhvYT/kernel", "shape": [1, 1, 256, 256], "dtype": "float32"}, {"name": "CNFabhuH/kernel", "shape": [1, 1, 32, 192], "dtype": "float32"}, {"name": "CNTsWKWT/kernel", "shape": [1, 1, 256, 256], "dtype": "float32"}, {"name": "CNbzfZUF/kernel", "shape": [1, 1, 384, 96], "dtype": "float32"}, {"name": "CNzcgfla/kernel", "shape": [1, 1, 96, 24], "dtype": "float32"}, {"name": "COkxToeC/kernel", "shape": [1, 1, 256, 256], "dtype": "float32"}, {"name": "COtchxqO/kernel", "shape": [1, 1, 576, 160], "dtype": "float32"}, {"name": "CPFgRGWC/kernel", "shape": [1, 1, 96, 576], "dtype": "float32"}, {"name": "CQlIZkZT/kernel", "shape": [1, 1, 32, 16], "dtype": "float32"}, {"name": "CQtbnHKk/kernel", "shape": [1, 1, 256, 256], "dtype": "float32"}, {"name": "CRKUnsfy/kernel", "shape": [1, 1, 32, 32], "dtype": "float32"}, {"name": "CSwHVMej/kernel", "shape": [1, 1, 160, 960], "dtype": "float32"}, {"name": "CTTJdPJu/kernel", "shape": [1, 1, 256, 256], "dtype": "float32"}, {"name": "CTZWZYaZ/kernel", "shape": [1, 1, 256, 256], "dtype": "float32"}, {"name": "CUNCRXdv/kernel", "shape": [1, 1, 64, 384], "dtype": "float32"}, {"name": "CVNdmPKg/kernel", "shape": [1, 1, 64, 256], "dtype": "float32"}, {"name": "CWYfFhnt/kernel", "shape": [1, 1, 384, 64], "dtype": "float32"}, {"name": "CWrxoFxa/kernel", "shape": [1, 1, 384, 64], "dtype": "float32"}, {"name": "CWzCJTCi/kernel", "shape": [1, 1, 64, 384], "dtype": "float32"}, {"name": "CYRkSHGB/kernel", "shape": [1, 1, 256, 256], "dtype": "float32"}, {"name": "CYobMkZv/kernel", "shape": [1, 1, 16, 96], "dtype": "float32"}, {"name": "CZsEJmJc/kernel", "shape": [1, 1, 256, 256], "dtype": "float32"}, {"name": "CaaiVOrW/kernel", "shape": [1, 1, 960, 160], "dtype": "float32"}, {"name": "CbqTlptN/kernel", "shape": [1, 1, 160, 960], "dtype": "float32"}, {"name": "CbroHZri/kernel", "shape": [1, 1, 64, 384], "dtype": "float32"}, {"name": "CcbVZUQh/kernel", "shape": [1, 1, 96, 576], "dtype": "float32"}, {"name": "CdlahXnB/kernel", "shape": [1, 1, 24, 256], "dtype": "float32"}, {"name": "CdqKiIdB/kernel", "shape": [1, 1, 256, 256], "dtype": "float32"}, {"name": "CeEPXRFB/kernel", "shape": [1, 1, 256, 256], "dtype": "float32"}, {"name": "CfFxyZxb/kernel", "shape": [3, 3, 256, 21], "dtype": "float32"}, {"name": "CfFxyZxb/bias", "shape": [21], "dtype": "float32"}, {"name": "CfZDegyL/kernel", "shape": [1, 1, 160, 256], "dtype": "float32"}, {"name": "CfpMFEJL/kernel", "shape": [1, 1, 32, 192], "dtype": "float32"}, {"name": "CgnxRgmD/kernel", "shape": [1, 1, 32, 192], "dtype": "float32"}, {"name": "CgoyZGrF/kernel", "shape": [1, 1, 576, 96], "dtype": "float32"}, {"name": "CiGjpejq/kernel", "shape": [1, 1, 24, 144], "dtype": "float32"}, {"name": "CiNqoYAV/kernel", "shape": [1, 1, 96, 256], "dtype": "float32"}, {"name": "CidGSblu/kernel", "shape": [1, 1, 64, 384], "dtype": "float32"}, {"name": "CjHEYnNj/kernel", "shape": [1, 1, 96, 576], "dtype": "float32"}, {"name": "CjvUUrJp/kernel", "shape": [1, 1, 256, 256], "dtype": "float32"}, {"name": "CjvzhshN/kernel", "shape": [1, 1, 144, 32], "dtype": "float32"}, {"name": "CktKYZlp/kernel", "shape": [1, 1, 256, 256], "dtype": "float32"}, {"name": "ClXCmJUO/kernel", "shape": [1, 1, 256, 256], "dtype": "float32"}, {"name": "CmiecRau/kernel", "shape": [1, 1, 192, 32], "dtype": "float32"}, {"name": "CoihONsZ/kernel", "shape": [3, 3, 3, 32], "dtype": "float32"}, {"name": "CsCvTAmp/kernel", "shape": [1, 1, 960, 160], "dtype": "float32"}, {"name": "CsNXdhGm/kernel", "shape": [1, 1, 32, 256], "dtype": "float32"}, {"name": "CvoQtGyV/kernel", "shape": [1, 1, 256, 256], "dtype": "float32"}, {"name": "CxJJIkMB/kernel", "shape": [1, 1, 256, 256], "dtype": "float32"}, {"name": "CxYQxccx/kernel", "shape": [1, 1, 192, 64], "dtype": "float32"}, {"name": "CxjHwPuK/kernel", "shape": [1, 1, 576, 96], "dtype": "float32"}, {"name": "CykBXQVA/kernel", "shape": [1, 1, 144, 24], "dtype": "float32"}, {"name": "CzbgVTJg/kernel", "shape": [1, 1, 256, 256], "dtype": "float32"}, {"name": "CzmGjgTt/kernel", "shape": [1, 1, 320, 256], "dtype": "float32"}, {"name": "CzrZXRRT/kernel", "shape": [1, 1, 160, 960], "dtype": "float32"}, {"name": "depthwise_conv2d_1/depthwise_kernel", "shape": [3, 3, 32, 1], "dtype": "float32"}, {"name": "depthwise_conv2d_10/depthwise_kernel", "shape": [3, 3, 384, 1], "dtype": "float32"}, {"name": "depthwise_conv2d_11/depthwise_kernel", "shape": [3, 3, 384, 1], "dtype": "float32"}, {"name": "depthwise_conv2d_12/depthwise_kernel", "shape": [3, 3, 576, 1], "dtype": "float32"}, {"name": "depthwise_conv2d_13/depthwise_kernel", "shape": [3, 3, 576, 1], "dtype": "float32"}, {"name": "depthwise_conv2d_14/depthwise_kernel", "shape": [3, 3, 576, 1], "dtype": "float32"}, {"name": "depthwise_conv2d_15/depthwise_kernel", "shape": [3, 3, 960, 1], "dtype": "float32"}, {"name": "depthwise_conv2d_16/depthwise_kernel", "shape": [3, 3, 960, 1], "dtype": "float32"}, {"name": "depthwise_conv2d_17/depthwise_kernel", "shape": [3, 3, 960, 1], "dtype": "float32"}, {"name": "depthwise_conv2d_2/depthwise_kernel", "shape": [3, 3, 96, 1], "dtype": "float32"}, {"name": "depthwise_conv2d_3/depthwise_kernel", "shape": [3, 3, 144, 1], "dtype": "float32"}, {"name": "depthwise_conv2d_4/depthwise_kernel", "shape": [3, 3, 144, 1], "dtype": "float32"}, {"name": "depthwise_conv2d_5/depthwise_kernel", "shape": [3, 3, 192, 1], "dtype": "float32"}, {"name": "depthwise_conv2d_6/depthwise_kernel", "shape": [3, 3, 192, 1], "dtype": "float32"}, {"name": "depthwise_conv2d_7/depthwise_kernel", "shape": [3, 3, 192, 1], "dtype": "float32"}, {"name": "depthwise_conv2d_8/depthwise_kernel", "shape": [3, 3, 384, 1], "dtype": "float32"}, {"name": "depthwise_conv2d_9/depthwise_kernel", "shape": [3, 3, 384, 1], "dtype": "float32"}]}]}